模型3结果/2model3.pth (torch, 197579 bytes, 21 tensors)

weight f4 [16, 1, 3]
-0.58052176 0.08051683 0.4935727 0.29106 0.21854661 -0.14816453 0.46827474 0.27393538
0.38536817 -0.25847852 0.20535131 0.47825956 -0.3892731 -0.40139925 0.107731484 0.25516513
0.03368635 0.011677928 0.3674244 -0.06630606 -0.49041355 -0.0017060149 0.4324322 -0.5033001
-0.33893716 -0.116622016 0.5090246 0.45132896 0.36001998 0.3114971 -0.35138956 0.17849272
-0.44959718 0.25541806 -0.48572174 -0.33623746 0.48353782 -0.210902 -0.07537001 0.015700402
0.53693426 -0.16291274 -0.34593973 0.05852317 -0.047038577 0.52058303 -0.0010202816 -0.30773246
00000000: 139d 14bf 02e6 a43d 90b5 fc3e d105 953e
00000010: afca 5f3e 71b8 17be b5c1 ef3e 4241 8c3e
00000020: fa4e c53e 4c57 84be 9d47 523e 70de f43e
00000030: ce4e c7be 3484 cdbe 53a2 dc3d 01a5 823e
00000040: b3fa 093d c854 3f3c 0d1f bc3e 79cb 87bd
00000050: 7c17 fbbe 5c9c dfba c167 dd3e 46d8 00bf
00000060: 2c89 adbe 86d7 eebd 704f 023f 9714 e73e
00000070: 8a54 b83e 8c7c 9f3e 55e9 b3be ccc6 363e
00000080: 9a31 e6be 28c6 823e 85b0 f8be 5127 acbe
00000090: 4592 f73e b2f6 57be 985b 9abd 219e 803c
000000a0: 8674 093f 99d2 26be 031f b1be feb5 6f3d
000000b0: 86ab 40bd ee44 053f f8ba 85ba 1c8f 9dbe

bias f4 [16]
-0.4137391 0.23155652 -0.3525563 0.22010998 0.24060951 0.44198036 -0.36169988 0.14504959
-0.36149788 0.3301099 -0.11626956 -0.098408245 0.3877059 -0.20180689 0.6102104 0.26689136
00000000: 9cd5 d3be 271d 6d3e 4282 b4be 8364 613e
00000010: 5762 763e 404b e23e ba30 b9be e187 143e
00000020: 4016 b9be 2a04 a93e bc1e eebd 438a c9bd
00000030: 6381 c63e 77a6 4ebe c036 1c3f fca5 883e

weight f4 [64, 16, 5]
0.013741824 0.0032113579 -0.07959924 0.05698514 -0.04241087 0.055627886 -0.045093417 0.045216758
0.03942845 0.016279275 0.10201953 0.036852516 0.01977345 0.103230156 -0.036175285 0.03777463
-0.026244674 -0.1021522 -0.03718446 0.06927395 -0.115342945 0.10677682 -0.0044407016 0.07580399
-0.04238598 -0.09801296 0.016968891 -0.071118176 -0.008144067 -0.08866732 -0.005114103 0.056482073
0.10133146 0.05739112 0.049842764 0.08455282 0.0064104293 -0.049711112 -0.038886487 -0.0067203306
-0.06769573 0.08818239 0.045410912 0.08335318 -0.10546462 -0.015897272 0.09653378 -0.061739374
0.025206393 -0.0616101 0.019954521 0.065496534 0.033702385 0.073454395 0.008826583 -0.009009429
0.07081935 0.08226301 0.015956556 -0.093937814 0.06398595 -0.09484545 0.017251397 0.07957235
0.08215579 0.10777071 -0.10430373 0.08350912 -0.10103235 -0.06490071 -0.0044104536 0.020260656
-0.06677799 -0.100722626 -0.03979132 0.05560161 -0.024875503 -0.03965938 0.04446247 0.044436187
-0.12276344 0.07017275 0.009283096 0.09541569 0.007907701 -0.04806156 0.04161233 0.08280002
0.06762006 0.013793232 0.094214365 -0.050740015 -0.07515024 0.053918548 -0.054001223 -0.10909668
-0.10501611 0.005829075 -0.111877106 0.07838108 0.10647524 0.09911581 0.010659357 -0.11972073
0.09870356 0.00016105345 -0.04085848 -0.06599554 -0.11110935 -0.060311265 0.0020485553 0.034852978
-0.043947782 0.022981921 0.1030172 -0.022565069 -0.012606668 0.025357796 -0.0985605 -0.05391044
0.096135765 -0.032162346 -0.07273746 0.03623313 -0.09385753 0.016744295 -0.074813515 -0.07694165
0.08031859 -0.051427558 -0.045863077 0.09637124 -0.008300353 -0.033426993 -0.054798286 0.02949936
-0.127276 -0.04102364 0.08445097 0.090849474 0.038859617 0.013419867 0.06984836 -0.11020235
-0.021397445 0.06813508 0.09021816 -0.05090773 0.026610386 0.07066676 -0.14555268 -0.05830951
0.04571978 0.03658197 -0.08826263 -0.052116662 0.025459519 -0.015073343 -0.071356535 -0.07831878
-0.024177562 -0.08911503 0.0105933165 0.00455434 -0.087398164 -0.10325025 0.10330526 0.06414286
0.096606694 0.03264698 -0.012999515 0.034829244 -0.059047323 -0.0012053757 -0.024076512 -0.034102175
-0.04022531 0.067028984 0.08965101 -0.04286164 0.01140665 -0.14511693 0.024140142 0.10953887
-0.037458908 0.072053686 0.10267852 -0.0019836158 0.09502729 0.004439909 -0.016903805 -0.052466497
-0.017131357 0.029236697 0.036808476 -0.13227521 -0.05929379 -0.101509966 -0.07130735 0.024346849
0.015834447 -0.012157119 -0.046367634 -0.10041183 -0.07628419 -0.12940693 -0.033660695 0.01605746
-0.0668743 -0.0381914 -0.10333356 -0.111784026 -0.09037577 0.077251524 -0.11044103 -0.061799962
0.06853549 0.054746933 0.0072742826 -0.005153236 -0.07791039 -0.06866361 -0.005709975 -0.07558127
0.109488524 0.027554743 0.06803803 -0.027482385 0.044558953 -0.031943675 0.0019301585 -0.04833734
0.087852076 0.044936005 -0.063238725 -0.012818863 0.0589307 0.048314527 0.047233067 0.041775182
0.093170695 -0.11021176 0.047608163 0.066144325 0.08564563 0.011728548 -0.051184766 0.09454523
0.08315777 -0.06765614 0.034346305 -0.051934663 0.07906144 0.089478746 0.026814755 -0.10503262
00000000: 6325 613c a575 523b ed04 a3bd 4069 693d
00000010: 05b7 2dbd 11da 633d e0b3 38bd 3535 393d
00000020: ba7f 213d 1d5c 853c 9eef d03d aaf2 163d
00000030: eefb a13c 556a d33d 892c 14bd 92b9 1a3d
00000040: 12ff d6bc 2c35 d1bd bb4e 18bd 80df 8d3d
00000050: ec38 ecbd cead da3d 4e83 91bb 1f3f 9b3d
00000060: ec9c 2dbd 05bb c8bd 5802 8b3c 68a6 91bd
00000070: b16e 05bc 3697 b5bd 3594 a7bb bf59 673d
00000080: de86 cf3d f312 6b3d ed27 4c3d 072a ad3d
00000090: 940e d23b e19d 4bbd 7047 1fbd 3836 dcbb
000000a0: 0fa4 8abd f898 b43d cb00 3a3d 12b5 aa3d
000000b0: d6fd d7bd ff3a 82bc 81b3 c53d 6de2 7cbd
000000c0: a37d ce3c df5a 7cbd aa77 a33c 0c23 863d
000000d0: 830b 0a3d 426f 963d 5f9d 103c 499c 13bc
000000e0: bc09 913d 8279 a83d 53b7 823c 7862 c0bd
000000f0: 110b 833d 553e c2bd cd52 8d3c d4f6 a23d
00000100: 4b41 a83d e4b6 dc3d 329d d5bd d406 ab3d
00000110: 0cea cebd aaea 84bd 9185 90bb adf9 a53c
00000120: e6c2 88bd aa47 cebd 39fc 22bd 84be 633d
00000130: b6c7 cbbc e071 22bd 471e 363d b802 363d
00000140: 666b fbbd bbb6 8f3d 2018 183c 4d69 c33d
00000150: 4d8f 013c 33dc 44bd b171 2a3d 0f93 a93d
00000160: 637c 8a3d 02fd 613c 76f3 c03d c3d4 4fbd
00000170: 5ee8 99bd b2d9 5c3d 6330 5dbd 156e dfbd
00000180: b012 d7bd d301 bf3b d31f e5bd 4286 a03d
00000190: b10f da3d 3bfd ca3d 95a4 2e3c 2430 f5bd
000001a0: 1825 ca3d 75e0 2839 395b 27bd ab28 87bd
000001b0: 4d8d e3bd f208 77bd 0e41 063b ffc1 0e3d
000001c0: 9702 34bd 9544 bc3c affa d23d 61da b8bc
000001d0: 338c 4ebc 27bb cf3c 16da c9bd 32d1 5cbd
000001e0: d4e2 c43d aabc 03bd 61f7 94bd 3169 143d
000001f0: 6038 c0bd 552b 893c d437 99bd 9593 9dbd
00000200: 137e a43d b4a5 52bd ecda 3bbd 495e c53d
00000210: 34fe 07bc beea 08bd 2b74 60bd a4a8 f13c
00000220: a454 02be 6808 28bd a1f4 ac3d 4a0f ba3d
00000230: 432b 1f3d 00df 5b3c a80c 8f3d c5b1 e1bd
00000240: b249 afbc 688a 8b3d 4cc4 b83d a084 50bd
00000250: 06fe d93c bcb9 903d c30b 15be f4d5 6ebd
00000260: aa44 3b3d fad6 153d 0ac3 b4bd 4878 55bd
00000270: 7b90 d03c 2ff6 76bc 6023 92bd 9965 a0bd
00000280: 0610 c6bc f181 b6bd 978f 2d3c 933c 953b
00000290: cffd b2bd de74 d3bd b591 d33d 555d 833d
000002a0: bbd9 c53d d7b8 053d ebfb 54bc 1ca9 0e3d
000002b0: 9bdb 71bd b2fd 9dba 1b3c c5bc b9ae 0bbd
000002c0: 4bc3 24bd 7e46 893d f39a b73d b08f 2fbd
000002d0: f5e2 3a3c 8899 14be 8cc1 c53c ea55 e03d
000002e0: 836e 19bd e290 933d 1e49 d23d 8dff 01bb
000002f0: ab9d c23d a87c 913b d979 8abc 1ce7 56bd
00000300: 0f57 8cbc cc81 ef3c 7cc4 163d 2773 07be
00000310: 0cde 72bd 75e4 cfbd 9709 92bd 0b73 c73c
00000320: 3eb7 813c a72e 47bc fdeb 3dbd b8a4 cdbd
00000330: e33a 9cbd 4083 04be ccdf 09bd ef8a 833c
00000340: 65f5 88bd 966e 1cbd 8ca0 d3bd 06ef e4bd
00000350: ef16 b9bd 0c36 9e3d e82e e2bd f521 7dbd
00000360: 565c 8c3d 523e 603d 1b5d ee3b 7adc a8bb
00000370: 7c8f 9fbd 829f 8cbd be1a bbbb 5aca 9abd
00000380: 853b e03d 7cba e13c 8657 8b3d bd22 e1bc
00000390: 7383 363d 5fd7 02bd 5ffd fc3a 60fd 45bd
000003a0: caeb b33d d10e 383d 4e83 81bd 3506 52bc
000003b0: 5161 713d 74e5 453d 7677 413d 741c 2b3d
000003c0: 47d0 be3d b4b6 e1bd c700 433d ad76 873d
000003d0: fa66 af3d 1929 403c 1ea7 51bd eea0 c13d
000003e0: 9f4e aa3d 4d8f 8abd b6ae 0c3d 71b9 54bd
000003f0: f7ea a13d a240 b73d 9eaa db3c 581b d7bd

bias f4 [64]
0.01266764 0.044601563 -0.090930395 -0.11757737 0.101907305 0.013343649 -0.028929992 0.017685607
-0.061784495 0.105199635 -0.08452414 0.09806283 -0.10699134 -0.02582671 -0.09166231 -0.05685075
0.027272426 -0.041077156 0.024549901 0.07042346 0.12005739 -0.09817555 0.06129781 -0.10204078
-0.06395243 -0.05704259 0.031824123 0.03825326 -0.106884606 -0.012496692 -0.0071856757 -0.042169
0.030781917 -0.021376768 0.044098347 -0.09609628 0.047643606 0.10767203 -0.087261915 0.08226099
-0.03568007 0.070051014 -0.08432743 0.08225177 0.01734477 -0.045397297 -0.06867144 -0.09079144
-0.08202353 -0.086404994 0.022511555 0.03471071 0.057871606 -0.04563605 -0.07737659 0.116186745
-0.10238378 -0.036884572 0.012703799 -0.07477341 -0.08013736 -0.10745033 -0.014945793 0.055994704
00000000: ef8b 4f3c 21b0 363d b739 babd 67cc f0bd
00000010: c7b4 d03d 529f 5a3c 97fe ecbc 68e1 903c
00000020: bd11 7dbd e872 d73d fe1a adbd 2ad5 c83d
00000030: 471e dbbd 8992 d3bc 73b9 bbbd 55dc 68bd
00000040: 6c6a df3c 8540 28bd e01c c93c 2d3a 903d
00000050: a6e0 f53d 4310 c9bd 6a13 7b3d c2fa d0bd
00000060: 7ef9 82bd 7ea5 69bd 035a 023d 73af 1c3d
00000070: 51e6 dabd edbe 4cbc d175 ebbb 67b9 2cbd
00000080: 5c2a fc3c 551e afbc 78a0 343d 20ce c4bd
00000090: f125 433d 2783 dc3d 60b6 b2bd 7378 a83d
000000a0: 4425 12bd e876 8f3d dcb3 acbd 9e73 a83d
000000b0: 9e16 8e3c 84f2 39bd 9da3 8cbd ddf0 b9bd
000000c0: f4fb a7bd 1af5 b0bd 276a b83c d12c 0e3d
000000d0: c70a 6d3d deec 3abd 9e77 9ebd 51f3 ed3d
000000e0: 96ae d1bd 4714 17bd 9823 503c cd22 99bd
000000f0: 0e1f a4bd eb0e dcbd 33df 74bc b45a 653d

weight f4 [128, 64, 3]
-0.01813968 0.009367205 -0.033522874 -0.043941848 0.008034358 -0.005471547 -0.03749549 -0.053041104
0.0018077334 0.047070887 0.009579757 -0.027617712 -0.00040712726 0.047998752 0.021176657 0.0077098836
0.07118351 -0.0056091566 0.0490144 -0.052284744 0.052787732 0.043826587 0.07147839 -0.017950695
0.025821557 0.05218801 0.0063631274 -0.067104444 -0.024588412 0.043472905 -0.055828597 0.026247121
0.022407046 -0.038210392 -0.01258677 -0.053837117 -0.009433452 -0.041239355 -0.038719486 0.06534065
0.036061186 -0.00537739 -0.008012246 0.046922002 -0.015224626 0.043497015 -0.00068600615 -0.0022902773
-0.0250802 0.04384887 -0.041877855 0.056109127 -0.012515796 -0.049286474 -0.0072517907 -0.050345756
-0.041042086 -0.05468472 -0.037530486 0.0037556926 0.002629242 0.03799127 -0.0038782186 0.0498695
0.07089919 0.056692354 -0.050655644 0.033992134 0.022578694 0.06359856 -0.039555863 -0.031065824
-0.042141154 0.030792382 -0.060983174 0.0048526167 -0.0602177 -0.042005356 0.057695564 0.00038327085
-0.033665165 -0.02860131 0.0030433424 -0.022692515 -0.07043172 0.023353716 -0.015165148 -0.009280488
-0.018910663 -0.014082859 0.037624627 0.06084482 0.029498873 0.03829766 0.048568353 0.063252114
-0.06755221 0.039623644 0.007101628 -0.0038328269 -0.00250145 0.03150216 -0.017770814 0.014632886
-0.040067714 0.060947526 -0.041935015 0.0078221215 0.032362297 -0.06721123 -0.0059648403 -0.013361822
0.061118457 -0.001366943 0.0052071675 0.013920582 0.040885434 0.012973004 -0.042479496 -0.038659815
0.04628646 0.043633215 -0.057594687 -0.0036352673 0.06046652 -0.03541292 0.0012611113 -0.043360066
-0.037965555 -0.021956963 0.06824134 -0.061670102 0.018513972 -0.01082434 0.03182979 0.0005723031
-0.00059069775 0.034874022 0.05295978 0.042382352 -0.014838461 0.046762463 -0.053030793 0.07153502
0.051493775 -0.009613709 0.021083673 0.054902013 -0.036087755 0.043163676 -0.033005424 -0.06534156
0.024872128 -0.053858064 0.052021 0.055623222 0.0062447907 -0.015059461 -0.007962737 -0.016670503
0.05004074 0.048054244 0.03347253 0.022631865 -0.0041122404 0.06499931 -0.070428446 -0.061374027
0.065198705 0.052969217 -0.044561267 0.03807646 0.003017494 0.03753412 0.06546876 -0.0072837016
0.013410889 0.029606732 -0.0027971992 0.016069097 0.012450309 -0.06504169 0.06250451 0.057373248
-0.058786858 0.00096598314 0.05259565 -0.005657437 0.052437678 0.036353786 -0.055838585 -0.04579214
0.059636712 -0.041188903 0.06310573 -0.03877173 0.07689641 -0.03610917 -0.032016918 -0.017044367
0.0005421578 0.029311191 -0.015319752 -0.047526866 0.061691605 0.048169434 0.02753558 0.047328074
-0.07470397 -0.020092629 0.011970662 0.0054620705 0.037333917 -0.048249297 0.015182178 -0.011784439
0.034476746 -0.06305494 -0.022547014 0.03825278 0.06496384 -0.01348799 0.035444863 0.06529046
-0.040499117 0.051585797 0.0060805003 -0.04481696 0.047816187 0.04258715 -0.012886518 -0.0024633217
-0.046427846 -0.034197237 -0.066437036 0.059933804 -0.050145786 0.06765945 -0.038346637 -0.053919572
-0.042726185 -0.029943135 0.06572962 -0.049117304 -0.036938008 0.05894876 0.032854274 0.029788608
-0.007967953 -0.066330165 -0.0336737 0.05092283 0.07359441 -0.02026761 -0.0048070233 0.05468587
00000000: ab99 94bc e878 193c 484f 09bd 5efc 33bd
00000010: 8aa2 033c aa4a b3bb df94 19bd a141 59bd
00000020: 78f1 ec3a 67cd 403d 6af4 1c3c 8a3e e2bc
00000030: b273 d5b9 579a 443d ab7a ad3c 31a3 fc3b
00000040: a9c8 913d 04cd b7bb 53c3 483d 8728 56bd
00000050: f337 583d 8283 333d 4363 923d 560d 93bc
00000060: bb87 d33c 18c3 553d c881 d03b 0e6e 89bd
00000070: a36d c9bc a510 323d 87ac 64bd 3404 d73c
00000080: fb8e b73c 8082 1cbd bd38 4ebc 4f84 5cbd
00000090: c48e 1abc 99ea 28bd 5398 1ebd 52d1 853d
000000a0: e5b4 133d d134 b0bb cc45 03bc 4931 403d
000000b0: b670 79bc ed29 323d 18d5 33ba 7a18 16bb
000000c0: fe74 cdbc df9a 333d 1d88 2bbd afd2 653d
000000d0: 0e0f 4dbc 9de0 49bd 6ea0 edbb 5a37 4ebd
000000e0: bf1b 28bd 16fd 5fbd 91b9 19bd 1122 763b
000000f0: 5c4f 2c3b bc9c 1b3d b629 7ebb f643 4c3d
00000100: 9833 913d 3e36 683d 4b7c 4fbd 563b 0b3d
00000110: f4f6 b83c f63f 823d 5405 22bd c17d febc
00000120: 349c 2cbd 4e40 fc3c 7ec9 79bd b302 9f3b
00000130: d6a6 76bd cf0d 2cbd 2f52 6c3d bef1 c839
00000140: 7ce4 09bd 4b4d eabc d072 473b a7e5 b9bc
00000150: 813e 90bd 4b50 bf3c 3e77 78bc 300d 18bc
00000160: 89ea 9abc cbbb 66bc 481c 1a3d 6b38 793d
00000170: 9fa7 f13c 02de 1c3d 9cef 463d 538a 813d
00000180: d058 8abd 674c 223d c6b4 e83b 2a30 7bbb
00000190: 5eef 23bb 6908 013d 1994 91bc c6be 6f3c
000001a0: 0b1e 24bd 1da4 793d 0dc4 2bbd 5b28 003c
000001b0: 548e 043d 0ba6 89bd b574 c3bb 8beb 5abc
000001c0: 5957 7a3d ff2a b3ba e3a0 aa3b 2713 643c
000001d0: 7c77 273d b98c 543c fbfe 2dbd c159 1ebd
000001e0: df96 3d3d beb8 323d 68e8 6bbd aa3d 6ebb
000001f0: beab 773d 230d 11bd e04b a53a 539a 31bd
00000200: c581 1bbd 17df b3bc 1ec2 8b3d ca99 7cbd
00000210: 9daa 973c 9358 31bc f45f 023d 9c06 163a
00000220: 0ed9 1aba 10d8 0e3d 5bec 583d 1e99 2d3d
00000230: 041d 73bc ff89 3f3d d136 59bd f480 923d
00000240: 23eb 523d d182 1dbc abb7 ac3c efe0 603d
00000250: c1d0 13bd 65cc 303d b230 07bd ccd1 85bd
00000260: a2c0 cb3c 469a 5cbd f913 553d 2dd5 633d
00000270: 1aa1 cc3b f5bb 76bc 2476 02bc 9490 88bc
00000280: 85f7 4c3d 87d4 443d 7e1a 093d 7666 b93c
00000290: f9bf 86bb 5c1e 853d ca3c 90bd 5563 7bbd
000002a0: e686 853d 40f6 583d e085 36bd 10f6 1b3d
000002b0: 26c1 453b 61bd 193d 7c14 863d 1eac eebb
000002c0: 58b9 5b3c d189 f23c 3751 37bb 57a3 833c
000002d0: 61fc 4b3c 9434 85bd 5d02 803d 3600 6b3d
000002e0: 7dca 70bd 083a 7d3a 896e 573d 0562 b9bb
000002f0: e4c8 563d b5e7 143d 00b7 64bd 8a90 3bbd
00000300: a045 743d b2b5 28bd 943d 813d 1bcf 1ebd
00000310: dd7b 9d3d 36e7 13bd 2c24 03bd a1a0 8bbc
00000320: 981f 0e3a 061e f03c b2ff 7abc 88ab 42bd
00000330: 56b0 7c3d 504d 453d 4c92 e13c 15db 413d
00000340: 65fe 98bd 4c99 a4bc 9820 443c 2bfb b23b
00000350: 73eb 183d 0ea1 45bd abbe 783c 8513 41bc
00000360: 7d37 0d3d f322 81bd 84b4 b8bc f2ae 1c3d
00000370: c30b 853d bbfc 5cbc a22e 113d 01b7 853d
00000380: 67e2 25bd a14b 533d ef3e c73b fd91 37bd
00000390: e8da 433d dd6f 2e3d f921 53bc ae6f 21bb
000003a0: 202b 3ebd 6712 0cbd 2410 88bd 267d 753d
000003b0: ab65 4dbd 0a91 8a3d 5d11 1dbd c5da 5cbd
000003c0: a701 2fbd 4e4b f5bc 409d 863d 3a2f 49bd
000003d0: 4f4c 17bd 4174 713d 3492 063d 3d07 f43c
000003e0: 048c 02bc 1cd8 87bd 6fed 09bd 7594 503d
000003f0: abb8 963d 4208 a6bc 3c84 9dbb 4afe 5f3d

bias f4 [128]
-0.046232436 -0.068761915 0.017198633 0.026542142 0.064415626 -0.03221128 -0.015502259 -0.06809821
0.0050702062 -0.042503048 0.04223387 -0.050684586 0.039265007 0.06903704 -0.058129475 0.061577883
0.07175746 0.06350629 -0.05786193 0.026601369 0.04724233 -0.03920179 0.060735747 -0.04746275
0.02872748 0.04811766 -0.0058046174 -0.0020739096 0.068988726 0.050355725 -0.011044247 0.027581258
-0.020147376 -0.014135504 0.033085506 0.015991751 -0.0013744083 -0.057584606 -0.014684431 -0.06411399
0.04326257 -0.087834924 0.031679727 -0.07034797 -0.06345501 -0.026516268 0.025632538 0.07076716
0.04498328 0.014813432 -0.019824978 0.0070804358 -0.028244538 -0.064460106 -0.016410427 0.06406586
-0.047274783 0.0065369527 -0.048655838 -0.051341727 -0.019385409 0.05983684 0.061731886 0.00612791
0.009452655 -0.009396267 -0.049759667 -0.034903973 0.004912826 0.038938127 -0.014562031 -0.051767934
-0.024588479 -0.02881601 0.035582557 -0.060080227 -0.050584912 0.0006635607 -0.0015375522 -0.054110456
-0.017187346 0.014767919 -0.030214265 0.03587455 -0.06797861 -0.046948448 0.016085299 -0.03861358
-0.04178287 -0.06807722 0.015505552 0.016685525 -0.04804247 0.060717117 0.041599154 -0.04835765
-0.06535385 0.061617468 0.07258974 -0.06893859 0.010953997 -0.033436473 0.015824247 0.024854805
-0.030959483 0.034579314 -0.007028854 -0.06862963 0.007366295 0.062457133 0.02218264 0.060838256
-0.0035286597 -0.004146802 0.032673493 -0.07364195 0.029508935 -0.03081705 0.008670029 0.00068289106
0.03546104 -0.004868258 0.039519295 0.057416923 -0.056131456 0.039893202 -0.034264896 -0.05184485
00000000: 395e 3dbd 0cd3 8cbd 26e4 8c3c e86e d93c
00000010: 57ec 833d faef 03bd 30fd 7dbc 1377 8bbd
00000020: f923 a63b ad17 2ebd 6cfd 2c3d a49a 4fbd
00000030: 58d4 203d 4b63 8d3d 2c19 6ebd 1739 7c3d
00000040: 93f5 923d 960f 823d a200 6dbd 1deb d93c
00000050: 2c81 413d 0e92 20bd 0cc6 783d 4d68 42bd
00000060: e455 eb3c 0617 453d a934 bebb 6eea 07bb
00000070: f649 8d3d ce41 4e3d eef2 34bc 17f2 e13c
00000080: 1c0c a5bc 9a98 67bc ab84 073d 2201 833c
00000090: 7d25 b4ba d6dd 6bbd f896 70bc 324e 83bd
000000a0: 1834 313d cce2 b3bd 9ac2 013d 9912 90bd
000000b0: b3f4 81bd a538 d9bc 54fb d13c 5fee 903d
000000c0: 6340 383d 09b4 723c fe67 a2bc 0003 e83b
000000d0: 1761 e7bc a903 84bd 296f 86bc f634 833d
000000e0: 34a3 41bd ef33 d63b 584b 47bd b44b 52bd
000000f0: 26ce 9ebc 7917 753d 93da 7c3d a3cc c83b
00000100: 4fdf 1a3c cdf2 19bc cbd0 4bbd 78f7 0ebd
00000110: c6fb a03b 967d 1f3d 9695 6ebc 9d0a 54bd
00000120: c76d c9bc 8e0f ecbc 04bf 113d af16 76bd
00000130: 2032 4fbd cef2 2d3a b187 c9ba eda2 5dbd
00000140: 7acc 8cbc 24f5 713c e883 f7bc 31f1 123d
00000150: 5f38 8bbd 044d 40bd 51c5 833c 4629 1ebd
00000160: 8424 2bbd 126c 8bbd 000b 7e3c 15b0 883c
00000170: 2ec8 44bd 83b2 783d e063 2a3d ac12 46bd
00000180: 3dd8 85bd 9962 7c3d eea9 943d ad2f 8dbd
00000190: 6578 333c aff4 08bd daa1 813c 4e9c cb3c
000001a0: be9e fdbc 0aa3 0d3d 4d52 e6bb b18d 8cbd
000001b0: f660 f13b 0dd3 7f3d 5eb8 b53c 8931 793d
000001c0: 1641 67bb e5e1 87bb a4d4 053d 97d1 96bd
000001d0: b9bc f13c 0a74 fcbc bd0c 0e3c 0b04 333a
000001e0: 983f 113d e885 9fbb fcde 213d 022e 6b3d
000001f0: 19ea 65bd 0e67 233d 5959 0cbd 445b 54bd

weight f4 [16, 128, 3]
0.047334183 0.008798105 -0.032903865 0.040098015 0.023053892 -0.029439153 -0.04723778 0.046111785
-0.032307357 0.0026822453 -0.022666255 -0.043249495 -0.0029095844 0.055624537 -0.0060564307 0.057869114
-0.004204324 0.04342401 0.045764726 0.021335019 0.016651927 0.0031528492 -0.06788336 0.027015643
-0.0065816324 0.024790654 0.040915225 0.071899876 -0.012278479 -0.012913818 0.010916903 -0.03173365
0.026303822 0.03015635 0.01244092 -0.003884931 0.045688037 0.042738013 -0.04085143 -0.03506533
0.043408163 -0.037525754 0.04305854 0.041959297 0.023429299 0.012246416 0.0070225173 0.03359299
0.001843154 0.045056123 -0.011901194 0.0396636 0.04482054 -0.019725375 -0.03734677 0.019885812
0.065921806 0.02445492 -0.018423147 -0.0018483918 0.035233356 0.0043569417 -0.019601094 0.036956977
0.049218208 -0.0083519975 -0.006468978 0.049866356 -0.004237046 -0.031769425 0.017743267 -0.04128045
-0.041833803 0.06539122 0.03153705 0.00954602 0.01582929 0.0031121245 0.010258713 0.056097336
-0.024867857 -0.018187907 -0.024456898 -0.006010118 0.024409382 -0.030912915 -0.022858348 0.014729366
-0.00970901 0.03225021 0.0478322 0.015807925 -0.014266144 -0.015868522 -0.0321219 0.008567239
-0.04723623 0.008734347 0.048975255 0.026659995 -0.017757323 0.015090997 0.010399897 -0.017912704
-0.011392289 -0.0005544328 0.0077623283 -0.05125696 -0.035587214 0.0438176 0.02027112 0.007510027
-0.0541192 -0.013872338 -0.035158146 -0.040336367 0.046958823 0.020964455 -0.048577454 -0.048506062
0.027350066 -0.00774742 -0.03134622 -0.0058328616 -0.02263615 0.026553415 0.020506872 -0.008885322
-0.041863903 -0.025659392 0.042193454 -0.023753695 0.026729403 0.02427522 0.0138679575 0.039343387
-0.026518146 0.053220954 -0.0072678397 -0.049436633 -0.022965113 -0.03191032 -0.020273104 0.026692769
0.0120244725 -0.029714828 0.05906639 -0.0047372296 -0.021645334 -0.0007656564 -0.0042622467 0.04376668
0.017983021 -0.037378985 0.029729726 0.026515562 0.044892892 0.049164552 0.024482006 -0.023611419
-0.040007588 0.057786703 0.03545197 0.01904939 0.06115135 0.032183 -0.0027822412 0.010979164
-0.04123968 0.027359238 -0.007884466 -0.0008345443 0.01947985 -0.02542718 0.039552387 -0.065952584
-0.042829316 0.031252656 0.049670015 0.025259474 -0.022213887 -0.04068753 0.008116709 0.031826835
0.018862687 0.026350355 0.030973649 -0.03325054 -0.036495548 0.028164662 -0.041596003 0.025653878
-0.007899153 0.018129157 0.010319318 -0.005661257 -0.039397106 0.010518639 0.050238527 0.019721178
-0.021292578 -0.040098205 -0.0007266863 -0.02458967 -0.039332755 -0.013149892 0.035822228 0.053220578
0.005616287 -0.0050456743 0.049623884 0.04824634 0.030866982 -0.022298599 0.05307505 0.02622567
-0.02433336 0.05257617 0.0033244255 0.05676876 0.03096293 0.031674933 -0.00052764 -0.006576288
0.0043725045 0.009415937 0.039754584 0.061547503 0.052528933 0.056051977 0.0029754543 -0.0152306035
0.047445547 0.02592888 0.016306942 0.022874625 0.008569315 -0.009384378 0.007095092 0.025675612
0.022151433 -0.045216616 0.040385194 -0.007508683 -0.025591502 -0.059319727 -0.03602561 0.012122315
0.036710847 -0.03812559 0.01878654 0.011882446 -0.038145486 -0.025325932 -0.038184736 0.0005000573
00000000: 7de1 413d ed25 103c 34c6 06bd d13d 243d
00000010: 84db bc3c 612a f1bc 677c 41bd b6df 3c3d
00000020: b854 04bd 9cc8 2f3b 95ae b9bc 6226 31bd
00000030: baae 3ebb 8ed6 633d 0675 c6bb 2a08 6d3d
00000040: 6dc4 89bb 60dd 313d cb73 3b3d c7c6 ae3c
00000050: 9f69 883c 08a0 4e3b 6e06 8bbd e94f dd3c
00000060: bcaa d7bb c515 cb3c b996 273d 3e40 933d
00000070: ac2b 49bc 7a94 53bc cfdc 323c 25fb 01bd
00000080: 1d7b d73c 730a f73c 00d5 4b3c 549a 7ebb
00000090: 6123 3b3d 0e0e 2f3d d453 27bd aaa0 0fbd
000000a0: c2cc 313d 9bb4 19bd 275e 303d 83dd 2b3d
000000b0: cdee bf3c 31a5 483c 251d e63b ce98 093d
000000c0: fc95 f13a c58c 383d 3afd 42bc 4d76 223d
000000d0: be95 373d 1c97 a1bc edf8 18bd 92e7 a23c
000000e0: 0302 873d af55 c83c 24ec 96bc bd45 f2ba
000000f0: da50 103d adc4 8e3b 7992 a0bc 3360 173d
00000100: 0899 493d d1d6 08bc b8f9 d3bb aa40 4c3d
00000110: ebd6 8abb a820 02bd 545a 913c b015 29bd
00000120: ec59 2bbd d5eb 853d fe2c 013d e966 1c3c
00000130: 6dac 813c c9f4 4b3b 2914 283c 52c6 653d
00000140: adb7 cbbc cefe 94bc d559 c8bc 86f0 c4bb
00000150: 2ff6 c73c 153d fdbc 6e41 bbbc 7053 713c
00000160: 8a12 1fbc cc18 043d b2eb 433d 9f7f 813c
00000170: 8bbc 69bc b4fe 81bc 4192 03bd 9b5d 0c3c
00000180: c77a 41bd 821a 0f3c 479a 483d 1066 da3c
00000190: ce77 91bc 3b40 773c 5464 2a3c aabd 92bc
000001a0: b9a6 3abc 5b57 11ba 215b fe3b d1f2 51bd
000001b0: e6c3 11bd 157a 333d 9f0f a63c ac16 f63b
000001c0: 18ac 5dbd ce48 63bc fd01 10bd bf37 25bd
000001d0: e557 403d a6bd ab3c 27f9 46bd 4bae 46bd
000001e0: 3f0d e03c 12de fdbb e564 00bd 9721 bfbb
000001f0: 726f b9bc 8c86 d93c 07fe a73c be93 11bc
00000200: 7c79 2bbd a533 d2bc 0bd3 2c3d 1c97 c2bc
00000210: 9ff7 da3c d4dc c63c 6e36 633c 8826 213d
00000220: 953c d9bc 37fe 593d 0f27 eebb 117e 4abd
00000230: 5521 bcbc 65b4 02bd c813 a6bc cbaa da3c
00000240: 4b02 453c 836c f3bc 99ef 713d c33a 9bbb
00000250: 8e51 b1bc 55b6 48ba 51aa 8bbb b144 333d
00000260: 2151 933c b51a 19bd c18b f33c 2a37 d93c
00000270: 9ce1 373d c560 493d 7d8e c83c bc6c c1bc
00000280: ffde 23bd c0b1 6c3d 1636 113d 770d 9c3c
00000290: d779 7a3d 52d2 033d 4356 36bb f4e1 333c
000002a0: f0ea 28bd 7b20 e03c d92d 01bc 52c5 5aba
000002b0: 3594 9f3c a94c d0bc af01 223d 2612 87bd
000002c0: cb6d 2fbd c902 003d c972 4b3d f5ec ce3c
000002d0: e6f9 b5bc f8a7 26bd f2fb 043c db5c 023d
000002e0: ec85 9a3c b3dc d73c 73bc fd3c b831 08bd
000002f0: 5b7c 15bd 94b9 e63c 9260 2abd 1528 d23c
00000300: 736b 01bc 9983 943c 5b12 293c 1182 b9bb
00000310: dc5e 21bd 5f56 2c3c eac6 4d3d 4f8e a13c
00000320: c66d aebc 043e 24bd 187f 3eba 4770 c9bc
00000330: 621b 21bd a572 57bc 54ba 123d d2fd 593d
00000340: d408 b83b 2f56 a5bb 6a42 4b3d f49d 453d
00000350: c1dc fc3c 8dab b6bc 3965 593d 37d7 d63c
00000360: c156 c7bc 1c5a 573d 9bde 593b 5c86 683d
00000370: f8a5 fd3c 93bd 013d 5251 0aba e77d d7bb
00000380: 3a47 8f3b 4d45 1a3c b4d5 223d 3c19 7c3d
00000390: 9428 573d c296 653d d7ff 423b c889 79bc
000003a0: 4356 423d cd68 d43c 2396 853c 9163 bb3c
000003b0: 5066 0c3c efc0 19bc f27d e83b a955 d23c
000003c0: ec76 b53c 0f35 39bd f26a 253d 660b f6bb
000003d0: 45a5 d1bc 3ef9 72bd 978f 13bd ad9c 463c
000003e0: 1d5e 163d 9429 1cbd 3be6 993c 97ae 423c
000003f0: 713e 1cbd 5478 cfbc 9967 1cbd 4716 033a

bias f4 [16]
-0.02817546 -0.032416064 -0.0038162807 0.008197128 -0.042371932 -0.03676321 0.026687097 -0.008549445
0.026061758 0.010098889 -0.011019679 0.0021929475 -0.030044245 -0.03711068 -0.0347464 0.043833803
00000000: 39d0 e6bc b5c6 04bd 911a 7abb 3f4d 063c
00000010: 318e 2dbd 0595 16bd e69e da3c f912 0cbc
00000020: 787f d53c cf75 253c e28b 34bc 8eb7 0f3b
00000030: 591f f6bc 5e01 18bd 3e52 0ebd 138b 333d

weight f4 [16]
0.98900896 0.9958777 1.000135 0.98842347 1.0570374 1.0044601 0.9969512 1.0020255
0.99168736 0.99658126 1.0 0.96850127 0.98809564 0.99279886 1.028735 0.9973357
00000000: b12f 7d3f d7f1 7e3f 6c04 803f 5209 7d3f
00000010: 004d 873f 2692 803f 3238 7f3f 5f42 803f
00000020: 39df 7d3f f31f 7f3f 0000 803f b3ef 773f
00000030: d6f3 7c3f 1128 7e3f 97ad 833f 6451 7f3f

bias f4 [16]
-0.011078053 -0.0019282235 -0.012711548 0.013343602 0.0020427373 -0.010755118 -0.00016418197 -0.0013998487
-0.01884624 -0.0012924145 0.0051481924 0.013791326 0.0076183556 -0.009806355 0.007416562 0.0065229125
00000000: b980 35bc 72bc fcba 1944 50bc 209f 5a3c
00000010: 72df 053b 3c36 30bc 4328 2cb9 217b b7ba
00000020: 6e63 9abc 3c66 a9ba 2bb2 a83b 04f5 613c
00000030: 66a3 f93b d6aa 20bc a206 f33b 28be d53b

running_mean f4 [16]
0.0014826214 0.22677933 0.0071205474 0.2120476 0.25645643 0.43734136 0.0022757899 0.14894968
0.0010542292 0.31146246 0.0 0.0005001564 0.3856735 0.0038509462 0.6177165 0.26593247
00000000: 8554 c23a d738 683e 7b53 e93b 0223 593e
00000010: 424e 833e 35eb df3e 6b25 153b 4486 183e
00000020: 102e 8a3a 0278 9f3e 0000 0000 ee1c 033a
00000030: ff76 c53e 2860 7c3b ab22 1e3f 4d28 883e

running_var f4 [16]
0.039933644 0.10650407 0.28531963 0.06007806 0.00013225692 0.03927951 0.04745997 0.06707207
0.01886645 0.33006898 6e-45 0.007232214 0.056295242 0.12778814 0.00024292625 0.13205715
00000000: 7691 233d ce1e da3d 6a15 923e 6914 763d
00000010: 72ae 0a39 8de3 203d 6365 423d 155d 893d
00000020: d08d 9a3c cdfe a83e 0400 0000 35fc ec3b
00000030: d795 663d e5da 023e 05ba 7e39 fd39 073e

weight f4 [64]
0.9943573 1.0015182 1.0240036 0.989461 1.0025244 0.9928536 0.9994787 1.0008662
0.9933779 0.99637246 1.001734 1.0167505 0.9995815 1.0189363 0.99935305 1.0116122
0.9946964 0.9945816 0.993519 0.9955608 1.0210594 1.0136101 0.9899721 0.9954439
0.9995708 1.009168 0.9994426 0.99388385 0.9889848 0.99679464 0.9964065 0.99679965
1.0094484 0.99516696 1.0148082 0.9966249 0.99676144 1.0031062 0.99818105 0.9959872
0.9928822 0.99624544 1.0020173 1.0008626 0.98325515 0.99066687 0.99345773 1.0077536
1.0011805 0.99408627 1.0037225 0.9954062 0.99492264 1.0022306 0.99522746 0.99832165
0.996467 1.0005198 1.0002159 1.0168096 0.99864554 0.99930894 1.0008992 1.0037516
00000000: 338e 7e3f c031 803f 8d12 833f 514d 7d3f
00000010: b852 803f a72b 7e3f d6dd 7f3f 621c 803f
00000020: 044e 7e3f 4412 7f3f d238 803f e124 823f
00000030: 93e4 7f3f 816c 823f 9ad5 7f3f 827c 813f
00000040: 6ca4 7e3f e69c 7e3f 4357 7e3f 13dd 7e3f
00000050: 13b2 823f fabd 813f d06e 7d3f 69d5 7e3f
00000060: dfe3 7f3f 6b2c 813f 78db 7f3f 2c6f 7e3f
00000070: 1c2e 7d3f ef2d 7f3f 7f14 7f3f 432e 7f3f
00000080: 9b35 813f 43c3 7e3f 3ce5 813f cf22 7f3f
00000090: c22b 7f3f c965 803f cb88 7f3f 04f9 7e3f
000000a0: 872d 7e3f f109 7f3f 1a42 803f 441c 803f
000000b0: 9cb6 7b3f 589c 7d3f 3f53 7e3f 12fe 803f
000000c0: af26 803f 707c 7e3f fb79 803f f1d2 7e3f
000000d0: 40b3 7e3f 1849 803f 3ac7 7e3f 0292 7f3f
000000e0: 7618 7f3f 0811 803f 1307 803f d126 823f
000000f0: 3ca7 7f3f b6d2 7f3f 771d 803f ef7a 803f

bias f4 [64]
0.0020307705 0.0053899 0.0037396366 -0.0003606193 -0.00036508666 -0.0047777104 -0.00058772514 0.00016681258
0.0061656805 -0.0021000109 -0.008335547 0.0064304504 0.0021574085 0.0015162578 -0.00182601 0.0023166148
0.0012498271 -0.000579942 0.00046309625 -0.0035202156 0.0022528123 0.0069494783 0.0030262074 -0.0021114463
0.0032489838 0.0023510053 0.005529587 -0.007694462 -0.0014267708 0.0009471051 0.0062353946 -0.0024861714
-0.0024163763 -0.006269581 0.0032542709 0.00074599666 0.0015863392 -0.0006033918 -0.0019404228 -0.0021725728
-0.00320273 0.0068805413 -0.002595198 -0.0045426413 -0.0033317804 -0.0016386667 0.0015677435 -0.0033113954
-0.00034439392 -0.0006219981 -0.004846101 -0.0055415286 -0.002010981 -0.001256125 0.0069698063 0.00076458865
0.0021817668 -0.004264795 0.005152073 0.0069393837 0.0010214577 -0.0024570755 -0.00018092961 0.002237562
00000000: ad16 053b c29d b03b b114 753b 8111 bdb9
00000010: 1a69 bfb9 578e 9cbb 9111 1aba 69ea 2e39
00000020: 7a09 ca3b 56a0 09bb d191 08bc 87b6 d23b
00000030: 4f63 0d3b 2bbd c63a ba56 efba 59d2 173b
00000040: 3dd1 a33a 4007 18ba bacb f239 6bb3 66bb
00000050: eba3 133b 73b8 e33b 5653 463b 3160 0abb
00000060: e7ec 543b 5313 1a3b 8a31 b53b d321 fcbb
00000070: 7c02 bbba 2647 783a 4852 cc3b 09ef 22bb
00000080: 115c 1ebb 0f71 cdbb 9b45 553b fd8e 433a
00000090: b6ec cf3a f02c 1eba c955 feba b961 0ebb
000000a0: e5e4 51bb 2a76 e13b 3314 2abb 70da 94bb
000000b0: 005a 5abb 88c8 d6ba be7c cd3a ff03 59bb
000000c0: c58f b4b9 960d 23ba 0bcc 9ebb b695 b5bb
000000d0: aaca 03bb 90a4 a4ba f962 e43b ad6e 483a
000000e0: f9fb 0e3b b2bf 8bbb b9d2 a83b c563 e33b
000000f0: 6fe2 853a e306 21bb ecb7 3db9 10a4 123b

running_mean f4 [64]
0.01413644 0.053314757 0.0038435096 0.0021707553 0.100744046 0.013724677 0.006550503 0.038192634
0.011904485 0.1031591 0.0131007675 0.117764995 0.004315818 0.0035621938 0.0106304735 0.0041875937
0.042709928 0.003056692 0.036046665 0.07062933 0.12307812 0.005420539 0.07209897 0.010388494
0.0030878386 0.00054546836 0.029566057 0.0379062 0.002731898 0.010455546 0.013734556 0.004710188
0.040360674 0.0064964695 0.052613985 0.008568057 0.046327066 0.100979194 0.016881863 0.0945856
0.00036200625 0.06680923 0.0028242087 0.09053699 0.022813015 0.0002038501 0.012862145 0.005190539
0.0058890805 0.0077201445 0.008684855 0.04666787 0.07951757 0.0008782972 0.017960275 0.13601977
8.354598e-07 0.008354487 0.008086821 0.0027787345 0.009939294 0.010656951 0.0019047719 0.05821813
00000000: 879c 673c 9360 5a3d 64e3 7b3b 3b43 0e3b
00000010: e552 ce3d 78dd 603c 9aa5 d63b e16f 1c3d
00000020: 070b 433c 1445 d33d 9aa4 563c c62e f13d
00000030: b56b 8d3b b273 693b 702b 2e3c 1538 893b
00000040: 9bf0 2e3d c852 483b aba5 133d 1ca6 903d
00000050: 6210 fc3d c79e b13b a0a8 933d 8034 2a3c
00000060: 565d 4a3b c3fd 0e3a 8434 f23c 8843 1b3d
00000070: a509 333b bd4d 2b3c e706 613c ec57 9a3b
00000080: 3c51 253d 56e0 d43b c381 573d 0961 0c3c
00000090: 73c1 3d3d 2ece ce3d d54b 8a3c 18b6 c13d
000000a0: a8cb bd39 47d3 883d 5c16 393b 756b b93d
000000b0: 5ce2 ba3c 98c0 5539 bfbb 523c 6615 aa3b
000000c0: 30f9 c03b 44f9 fc3b ec4a 0e3c cf26 3f3d
000000d0: 1cda a23d 873d 663a 6d21 933c c448 0b3e
000000e0: 5c44 6035 42e1 083c 967e 043c 6e1b 363b
000000f0: 6cd8 223c 7e9a 2e3c 8aa9 f93a 2276 6e3d

running_var f4 [64]
0.16234665 0.002180114 0.0030770164 0.0028047026 0.03354115 0.038406182 0.0059858332 0.00027912104
0.028932976 0.054611832 0.051181957 0.00026444026 0.051971722 0.003219574 0.088727176 0.010076064
0.016497774 0.001962959 0.056786966 0.010800918 0.004810209 0.004059028 0.004177385 0.06511106
0.063674346 0.0001409231 0.063399725 0.044880737 0.009197859 0.015587329 0.04209753 0.010486585
0.0072653084 0.0076039736 0.00092584855 0.14074133 0.14854667 0.17463893 0.11016135 0.013837896
2.6480768e-05 0.1145651 0.024093837 0.0011913375 0.0066565247 3.934093e-05 0.066282645 0.006261921
0.041654028 0.057016935 0.0079301875 0.007623087 0.023392532 0.00024468562 0.12095379 0.0024347822
8.4433134e-07 0.028807178 0.013855871 0.001916865 0.084218174 0.07898169 0.020166053 0.0044141687
00000000: 333e 263e 3ee0 0e3b c5a7 493b 1acf 373b
00000010: 7262 093d cd4f 1d3d cf24 c43b fe56 9239
00000020: d904 ed3c a8b0 5f3d 2ca4 513d 92a4 8a39
00000030: 4de0 543d 7dff 523b 98b6 b53d 1316 253c
00000040: 5726 873c fda4 003b 7399 683d 55f6 303c
00000050: f59e 9d3b 9801 853b 72e2 883b f358 853d
00000060: b267 823d c2c4 1339 b7d7 813d ddd4 373d
00000070: 9eb2 163c ff61 7f3c 766e 2c3d edcf 2b3c
00000080: d311 ee3b c12a f93b a5b4 723a 7f1e 103e
00000090: 9e1c 183e 8cd4 323e 469c e13d 58b8 623c
000000a0: 0423 de37 1ba1 ea3d 7060 c53c a726 9c3a
000000b0: fa1e da3b 0002 2538 32bf 873d cd30 cd3b
000000c0: 6a9d 2a3d 978a 693d 9eed 013c 17cb f93b
000000d0: b2a1 bf3c 2649 8039 9fb6 f73d de90 1f3b
000000e0: 02a6 6235 08fd eb3c bc03 633c 513f fb3a
000000f0: 947a ac3d 27c1 a13d 4733 a53c bba4 903b

weight f4 [128]
0.9995318 1.0035894 0.99970776 1.006868 0.99804103 1.0098624 0.99740285 1.0105542
0.9990948 1.0086612 1.0051849 0.99986994 1.0003725 0.9973028 0.99896973 1.0009025
1.008818 1.0030458 1.0058097 1.0003293 1.000598 1.0099179 1.0042117 1.0041045
1.009165 1.0010983 1.0051378 1.007112 0.9999101 1.0007373 1.0105177 1.0025764
1.0011944 1.0005603 1.0031086 0.9984634 0.99972916 1.0057949 0.9991911 0.9986694
1.0044848 1.0008125 0.99894595 1.0004076 1.0018111 1.0052587 1.0072943 1.0001744
1.0034188 1.0073342 1.0012487 0.9984582 1.0029634 1.0006212 1.0077924 1.0009539
0.9999988 1.0196518 1.008535 1.0008601 1.0049304 1.0039611 1.0026273 1.001231
1.0028083 1.0078675 1.0062813 1.0015508 1.002807 1.0025615 1.0020403 1.0045291
1.0049006 1.0089821 1.000598 1.0075938 1.0161208 1.0033275 0.9996477 1.0062603
1.0012989 1.0071222 1.0059065 0.9981355 0.9994867 1.0122434 1.0033572 1.001026
1.0044926 1.0024474 1.0079752 1.0053533 1.0001463 1.0023589 1.0026225 1.0093699
1.0053973 1.0059078 1.003003 1.000052 1.0054132 1.0033764 0.998487 0.9993694
1.0097286 1.0102189 1.0002073 1.0007198 1.0028021 1.0121111 0.999197 1.0165267
1.0009848 1.0048832 1.0131643 1.0013254 1.006236 1.0012144 1.0086797 0.99972355
0.9991402 1.0098203 1.0039356 1.0018141 1.0069706 0.9973334 1.0044832 0.9991172
00000000: 51e1 7f3f 9e75 803f d9ec 7f3f 0de1 803f
00000010: 9e7f 7f3f 2c43 813f cb55 7f3f d759 813f
00000020: adc4 7f3f cf1b 813f e6a9 803f 7af7 7f3f
00000030: 350c 803f 3c4f 7f3f 7bbc 7f3f 931d 803f
00000040: f320 813f ce63 803f 5fbe 803f ca0a 803f
00000050: 9813 803f fd44 813f 028a 803f 7f86 803f
00000060: 522c 813f fd23 803f 5ba8 803f 0ce9 803f
00000070: 1cfa 7f3f 2918 803f a558 813f 6c54 803f
00000080: 2327 803f 5c12 803f dd65 803f 4c9b 7f3f
00000090: 40ee 7f3f e3bd 803f fdca 7f3f cca8 7f3f
000000a0: f592 803f a01a 803f ecba 7f3f 5b0d 803f
000000b0: 593b 803f 51ac 803f 05ef 803f b705 803f
000000c0: 0770 803f 54f0 803f eb28 803f f59a 7f3f
000000d0: 1b61 803f 5b14 803f 57ff 803f 421f 803f
000000e0: ecff 7f3f f383 823f ad17 813f 2f1c 803f
000000f0: 8fa1 803f cc81 803f 1756 803f 5628 803f
00000100: 065c 803f cd01 813f d3cd 803f d132 803f
00000110: fb5b 803f ef53 803f db42 803f 6994 803f
00000120: 95a0 803f 5326 813f 9813 803f d5f8 803f
00000130: 3f10 823f 096d 803f e9e8 7f3f 23cd 803f
00000140: 902a 803f 61e9 803f 8bc1 803f cf85 7f3f
00000150: 5cde 7f3f 3191 813f 026e 803f 9f21 803f
00000160: 3793 803f 3250 803f 5505 813f 6baf 803f
00000170: cb04 803f 4c4d 803f ef55 803f 0833 813f
00000180: dcb0 803f 96c1 803f 6762 803f b401 803f
00000190: 61b1 803f a36e 803f d89c 7f3f acd6 7f3f
000001a0: c93e 813f da4e 813f cb06 803f 9617 803f
000001b0: d25b 803f db8c 813f 60cb 7f3f 8c1d 823f
000001c0: 4520 803f 03a0 803f 5eaf 813f 6e2b 803f
000001d0: 57cc 803f cb27 803f 6b1c 813f e2ed 7f3f
000001e0: a7c7 7f3f cb41 813f f680 803f 723b 803f
000001f0: 6ae4 803f 3e51 7f3f e892 803f 25c6 7f3f

bias f4 [128]
0.00043454947 0.0013826574 -0.0006564453 -0.00013932501 -0.00030560853 0.001399041 0.0017041605 -0.00017929061
0.0006772788 -0.0005178848 0.000595426 -0.00041523276 0.00031424794 -0.0004086566 -0.00011754287 -0.00076647906
-0.0020638814 0.00028910168 0.00048732263 0.0006723504 -0.00025310848 2.811775e-05 -0.00012726198 -6.269153e-05
0.001205553 0.00056882086 0.00053090084 -0.0005230693 -0.00094404083 0.00039526424 0.00081310194 -0.0006419463
0.00013448382 -0.00011992669 -0.0005136935 -0.00069594383 -0.0008936702 -4.5798988e-05 -0.0006372935 0.00039063898
7.976496e-05 0.00053398905 0.0002377531 2.6406482e-05 0.0006487756 0.0005862471 0.00010141372 -2.1612545e-05
-0.00095523236 0.00054001407 0.00015551616 0.0005404641 0.0008269778 -0.00017682233 -0.00034529978 0.0015303785
-3.099623e-05 0.0013094253 -0.00058094406 -0.00032340555 -0.00069842726 0.0010049823 0.00037245062 0.0009139151
-0.00045722447 -0.002227023 0.00028551198 -0.00065717084 -0.0006189645 -0.000100643134 -0.00037733326 0.00063091377
0.0005060063 -0.00028447775 0.00011747408 0.0017211167 0.0018235387 0.00056965783 0.0010338303 0.001242983
-0.00085652544 -0.0012266876 0.0010006804 -0.00031436025 -0.00047771487 0.0003536411 0.0010499426 0.0010241743
0.00015627546 -0.0006638782 0.00038413884 0.0007175664 0.0011136793 -0.0010923486 -0.00017807484 0.0002011042
0.0010588057 -0.0011616232 -0.0007569783 0.0011775992 0.00027610915 -0.0011472668 -0.0009217667 0.00043928725
0.0010984626 0.0010788417 -5.9019305e-05 -0.00020690577 -0.00060102774 -0.00054844486 -3.333746e-06 -0.00044573806
0.00034703463 0.00067246077 0.00080019806 -0.00053518714 -0.00011800545 -0.00034095166 0.0003893921 -0.0003523066
-7.474102e-05 8.907974e-05 0.00096917123 -0.00094380043 -0.00020996876 -0.0001366426 0.00052443065 0.00060357084
00000000: 3ed4 e339 493a b53a 4c15 2cba c617 12b9
00000010: 153a a0b9 0760 b73a 235e df3a f5ff 3bb9
00000020: 698b 313a a9c2 07ba 5d16 1c3a 99b3 d9b9
00000030: a5c1 a439 f640 d6b9 5981 f6b8 8aed 48ba
00000040: 2f42 07bb 9292 9739 567f ff39 ac40 303a
00000050: a5b3 84b9 69de eb37 a171 05b9 4279 83b8
00000060: a503 9e3a ec1c 153a 272c 0b3a 961e 09ba
00000070: 8279 77ba 783b cf39 5926 553a 4948 28ba
00000080: 3a04 0d39 2781 fbb8 63a9 06ba 0070 36ba
00000090: 3145 6aba 4a18 40b8 0b10 27ba adce cc39
000000a0: 7d47 a738 66fb 0b3a 5d4d 7939 7d83 dd37
000000b0: 9812 2a3a 60ae 193a 14ae d438 964c b5b7
000000c0: 8f68 7aba bb8f 0d3a 0d12 2339 efad 0d3a
000000d0: 8ac9 583a 6269 39b9 5a09 b5b9 fb96 c83a
000000e0: f301 02b8 06a1 ab3a 7f4a 18ba c28e a9b9
000000f0: a916 37ba 9cb9 833a 7a45 c339 ce93 6f3a
00000100: a1b7 efb9 3ff3 11bb c5b0 9539 fd45 2cba
00000110: 0142 22ba 5f10 d3b8 d0d4 c5b9 e863 253a
00000120: 82a5 043a f525 95b9 6b5c f638 1897 e13a
00000130: ce03 ef3a 1755 153a 9781 873a 97eb a23a
00000140: 7388 60ba cec8 a0ba 4329 833a b8d0 a4b9
00000150: ce75 fab9 e868 b939 3a9e 893a 963d 863a
00000160: e0dd 2339 1d08 2eba 3e66 c939 111b 3c3a
00000170: e0f8 913a 232d 8fba 9ab9 3ab9 7fdf 5239
00000180: a0c7 8a3a 9b41 98ba f46f 46ba ac59 9a3a
00000190: bec2 9039 e35f 96ba b7a2 71ba 2350 e639
000001a0: 4afa 8f3a ec67 8d3a 7f8b 77b8 d8f4 58b9
000001b0: 4a8e 1dba 83c5 0fba 52b9 5fb6 f3b1 e9b9
000001c0: 33f2 b539 1448 303a 62c4 513a cd4b 0cba
000001d0: b279 f7b8 c2c1 b2b9 5327 cc39 cbb5 b8b9
000001e0: 48be 9cb8 52d0 ba38 fb0f 7e3a 6069 77ba
000001f0: 0f2b 5cb9 b847 0fb9 f279 093a f438 1e3a

running_mean f4 [128]
0.07334532 0.003335957 0.039505217 0.028611079 0.06252825 0.013961675 0.03126932 0.005287669
0.044939164 0.0068299994 0.06190496 0.01658911 0.08700986 0.14428522 0.07564292 0.06602475
0.15876733 0.07327329 0.0109776 0.06000202 0.058137592 0.040101554 0.06699937 0.011871433
0.05067753 0.05533074 0.012696663 0.037391778 0.091445066 0.05126662 0.016988795 0.03723396
0.018672952 0.021714633 0.084443085 0.04430579 0.017484574 0.0061856173 0.034301445 0.0059830025
0.06766223 0.004714931 0.03155674 0.010276012 0.014870489 0.028654965 0.06805236 0.07203675
0.07707363 0.077197336 0.013008659 0.02601107 0.009599055 0.029719187 0.026945747 0.06398447
0.0058695395 0.05180537 0.0044882908 0.0034654615 0.008697231 0.07563855 0.093485296 0.032730803
0.030484343 0.09046675 0.009205658 0.050858375 0.031047156 0.06442499 0.014031101 0.009203245
0.012783683 0.039356656 0.0681444 0.002861269 0.0042806016 0.0168389 0.02780888 0.013479076
0.014962416 0.048215147 0.022397475 0.043246564 0.018925916 0.002564046 0.020174308 0.015125139
0.009364492 0.003209311 0.03401688 0.017508833 0.024856623 0.06480471 0.06912533 0.031243889
0.008992734 0.07845116 0.13784283 0.036435947 0.0655014 0.009549895 0.07248821 0.046843644
0.010561768 0.061835006 0.018091049 0.012283838 0.060968574 0.10195803 0.046067256 0.10603133
0.021567713 0.067639805 0.07439093 0.0020917088 0.06368336 0.0033154914 0.06636792 0.05016854
0.09043255 0.02827974 0.05672225 0.06339056 0.0072985794 0.06430551 0.03865788 0.03822119
00000000: 1236 963d 12a0 5a3b 39d0 213d c861 ea3c
00000010: d00e 803d 82bf 643c 4214 003d 2f44 ad3b
00000020: 2112 383d 30ce df3b 0e90 7d3d e3e5 873c
00000030: 3a32 b23d 81bf 133e adea 9a3d fc37 873d
00000040: e793 223e 4f10 963d 64db 333c aec4 753d
00000050: af21 6e3d 8741 243d f736 893d 6680 423c
00000060: 3e93 4f3d 7ca2 623d aa05 503c 1f28 193d
00000070: 8d47 bb3d f3fc 513d 162c 8b3c a382 183d
00000080: 05f8 983c e3e2 b13c 7ff0 ac3d fd79 353d
00000090: cf3b 8f3c b8b0 ca3b ac7f 0c3d 100d c43b
000000a0: 7f92 8a3d b57f 9a3b a441 013d b85c 283c
000000b0: 5aa3 733c d1bd ea3c 095f 8b3d 0188 933d
000000c0: c8d8 9d3d a319 9e3d 4522 553c 2b15 d53c
000000d0: 5b45 1d3c a775 f33c 54bd dc3c 4a0a 833d
000000e0: 4455 c03b de31 543d 8312 933b cc1c 633b
000000f0: d57e 0e3c 62e8 9a3d 3875 bf3d bc10 063d
00000100: 4dba f93c a246 b93d 54d3 163c df50 503d
00000110: 9b56 fe3c 40f1 833d b4e2 653c 35c9 163c
00000120: a772 513c 7234 213d 4b8f 8b3d 2184 3b3b
00000130: 4a44 8c3b bcf1 893c 73cf e33c 58d7 5c3c
00000140: ec24 753c 3f7d 453d e97a b73c 4f23 313d
00000150: 860a 9b3c 8e09 283b 9744 a53c 6ecf 773c
00000160: 876d 193c 4e53 523b 4955 0b3d af6e 8f3c
00000170: 1ea0 cb3c 55b8 843d 9591 8d3d 2ff3 ff3c
00000180: 4356 133c 00ab a03d ac26 0d3e dc3d 153d
00000190: 9925 863d 2a77 1c3c b374 943d 1fdf 3f3d
000001a0: 440b 2d3c b446 7d3d ae33 943c 2742 493c
000001b0: 2fba 793d 5fcf d03d 05b1 3c3d f426 d93d
000001c0: c6ae b03c bd86 8a3d 465a 983d 0d15 093b
000001d0: 6c6c 823d b748 593b e7eb 873d 877d 4d3d
000001e0: b334 b93d eaaa e73c 9755 683d e9d2 813d
000001f0: ec28 ef3b 9bb2 833d ba57 1e3d d38d 1c3d

running_var f4 [128]
0.36740693 0.0023518146 0.039756034 0.042480126 0.34938005 0.008320185 0.17301622 0.0041763363
0.36228547 0.00065301947 0.01883146 0.059644476 0.003860221 0.020945184 0.5690861 0.3808386
0.0008126911 0.013436841 0.022101684 0.273648 0.13254076 0.0011283611 0.03454756 0.019173194
0.015990034 0.23118219 0.011978986 0.004072175 0.359526 0.05408574 0.02559119 0.06112211
0.06267222 0.05300291 0.0012590957 0.03647427 0.15120141 0.0051250597 0.08730641 0.03208229
0.008952958 0.0002892518 0.07751981 0.019884162 0.023295775 0.0013255412 0.0021428668 0.20392406
0.022944761 0.002928265 0.0183785 0.050062012 0.013955822 0.10088953 0.0047221547 0.10385738
0.010711049 0.0017555293 0.0044080904 0.0052851983 0.016303206 0.039131746 0.016720708 0.011238857
0.05661089 0.00027198487 0.011599863 0.21977371 0.00515087 0.01536631 0.0214682 0.009960757
0.009633026 0.0010118317 0.008492572 0.0014966275 0.00447965 0.030999802 0.015802952 0.02484973
0.002098429 0.010690534 0.0348943 0.4553685 0.16320536 0.0018554087 0.015003741 0.03266919
0.015036498 0.0030694567 0.016125647 0.023122726 0.069858454 0.12138766 0.021344649 0.0006940017
0.010118021 0.01720223 0.00057032186 0.12662642 0.0007297711 0.02336967 1.2385281 0.20819934
0.0012656655 0.002363258 0.06178185 0.050084457 0.001023761 0.00250043 0.006878179 0.0019912922
0.08132935 0.0010236826 0.0012567661 0.0012498439 0.0027326362 0.004198505 0.00088530616 0.29800448
0.005118901 0.0031452237 0.023967259 0.12485928 0.0013656914 0.21170463 0.0055604912 0.13895583
00000000: c31c bc3e e720 1a3b 39d7 223d a4ff 2d3d
00000010: f1e1 b23e 6351 083c 2a2b 313e a6d9 883b
00000020: 7b7d b93e 652f 2b3a 6f44 9a3c c44d 743d
00000030: c3fb 7c3b 3c95 ab3c a0af 113f 47fd c23e
00000040: c70a 553a 3226 5c3c 970e b53c 971b 8c3e
00000050: c4b8 073e 84e5 933a be81 0d3d 1a11 9d3c
00000060: 88fd 823c 06bb 6c3e 8243 443c e16f 853b
00000070: cb13 b83e 0289 5d3d 9ea4 d13c 2d5b 7a3d
00000080: 4b5a 803d 9419 593d 3e08 a53a 0b66 153d
00000090: 8bd4 1a3e 1ef0 a73b b4cd b23d b868 033d
000000a0: 6daf 123c b8a6 9739 b5c2 9e3d 1ce4 a23c
000000b0: c8d6 be3c c8bd ad3a 576f 0c3b 78d1 503e
000000c0: a7f6 bb3c 22e8 3f3b 828e 963c d30d 4d3d
000000d0: f6a6 643c 2b9f ce3d 4ebc 9a3b 2eb3 d43d
000000e0: 657d 2f3c ca19 e63a be71 903b 752f ad3b
000000f0: 4d8e 853c 9c48 203d def9 883c 2f23 383c
00000100: d2e0 673d 3199 8e39 5a0d 3e3c 5c0c 613e
00000110: a1c8 a83b fac2 7b3c 14de af3c 7132 233c
00000120: d7d3 1d3c 709f 843a 6e24 0b3c 7c2a c43a
00000130: 07ca 923b 4cf3 fd3c 3175 813c a991 cb3c
00000140: cc85 093b 5927 2f3c 53ed 0e3d 0f26 e93e
00000150: 4e1f 273e 2f31 f33a 40d2 753c 21d0 053d
00000160: a55b 763c f028 493b ef19 843c df6b bd3c
00000170: f311 8f3d 189a f83d f9da ae3c aaed 353a
00000180: 0ec6 253c b1eb 8c3c a781 153a 5baa 013e
00000190: 1c4e 3f3a c071 bf3c 1788 9e3f 3532 553e
000001a0: b0e4 a53a e4e0 1a3b f70e 7d3d 5c25 4d3d
000001b0: b82f 863a 41de 233b 5962 e13b 5780 023b
000001c0: 0190 a63d 172d 863a 13ba a43a cdd1 a33a
000001d0: 0716 333b 9d93 893b e413 683a 0b94 983e
000001e0: 74bc a73b 1920 4e3b fc56 c43c 39b6 ff3d
000001f0: 0001 b33a 19c9 583e c834 b63b 704a 0e3e
