模型3结果/model3.pth (torch, 614859 bytes, 22 tensors)

weight f4 [16, 1, 3]
00000000: b330 04bf b857 e23e d815 a83e 9bd7 c4be
00000010: 9ddd fc3e 5bc0 5cbe 2ef6 e6bb 98b5 f2be
00000020: 9f37 e1be 195b b4be 5c41 93bd 0a53 12bf
00000030: c032 13be 7a8a 91be a32e 9fbe efb8 e8be
00000040: 12be d93e 9e63 dfbe dc6d 06bf dad7 6bbe
00000050: 7509 ff3e 883e 023f 9e34 96be 8f6b 9b3c
00000060: e49d 0a3e 97dc 9bbb 7358 b0be c939 0d3f
00000070: e58e 8b3d 1d79 03be 5c5c ce3e f90b 283e
00000080: 417e b43e f431 dfbd 90bf c43e d10e 37be
00000090: 7e54 c03e 7375 54be 59d0 083f aad6 f0be
000000a0: e861 fd3d f3b4 0dbf d78c 5e3a 0cd4 903e
000000b0: 630e 7a3e 8e68 b1be dcb5 133e 2f04 0fbf
-0.5163681 0.4420755 0.32829165 -0.38445744 0.49387828 -0.21557753 -0.00704839 -0.4740417
-0.43987748 -0.35225752 -0.07190201 -0.5715796 -0.14374828 -0.28425962 -0.31090268 -0.45453593
0.42527825 -0.4363069 -0.5251138 -0.2303156 0.49811903 0.50876665 -0.2933702 0.018972186
0.13536793 -0.004756521 -0.3444248 0.551663 0.06814364 -0.1283917 0.4030484 0.16410817
0.35252574 -0.108982 0.384274 -0.17876746 0.37564462 -0.20747928 0.53442913 -0.47038776
0.1237219 -0.5535423 0.00084896147 0.2828678 0.2441955 -0.3465008 0.14424843 -0.5586576

bias f4 [16]
00000000: 87bd f73e c95a 303e cf09 d33e 0275 adbd
00000010: 383d e3be 6b10 693e 052a 28be c917 4b3e
00000020: 2eb3 053f abda 693e 7c83 523e 18d3 0abe
00000030: 2cd1 5dbe 1615 48be fc19 b93d 514c 04bf
0.48386785 0.17222132 0.4121842 -0.08469583 -0.44382644 0.22760169 -0.16422279 0.19833292
0.5222653 0.22837321 0.2055797 -0.13557088 -0.21661824 -0.19539294 0.09038159 -0.5167895

weight f4 [64, 16, 5]
00000000: 50a8 d03d 4792 18bd 8951 debd 1946 cb3d
00000010: 99f3 613d 4ae8 1d3d 44bb 02be 734f b63d
00000020: 3ea3 de3d bc94 4bbd 4ef4 8f3d a76c 92bd
00000030: 8a55 413e c2b5 25be 79d4 2c3d 1a81 d0bd
00000040: 35a2 a3bd 9041 a43b 48ec c93d f943 473d
00000050: bb88 fcbc 6cb2 35bd f05d 133d 0d38 c13d
00000060: ccea 653d df72 2abc 8df3 ffbd 9f65 c9bb
00000070: a405 c73d 65e7 133d 8431 853c f6ca 99bd
00000080: d51a 5c3d f5a7 e93c ba91 8ebc 1f63 39bd
00000090: 60ad 9d3c 1b39 0b3d 8927 7a3d 6310 0ebd
000000a0: f40e 65bd c4ac 60bd 8123 d9bc 2020 9fbd
000000b0: 6ca4 91bd 1e22 a3bd 075d eb3d 4f58 1e3d
000000c0: 43e3 613c c41e c7bd b4e5 dabd 1950 2e3c
000000d0: e17e 4cbd 7d54 d1bb 8e97 c53d d539 73bc
000000e0: 4599 143d 17ea b93d ddfc 653d 87c8 173c
000000f0: a10f ff3c 22f7 883d 8eab d7bd 6c5f 913d
00000100: 8275 ae3c 6ea3 d73c 9a10 b7bd ad8b 30bd
00000110: 7ad5 9cbc dedd 8bbc 29ba f83b f11d 563d
00000120: 4166 083d 3c31 333d e47f a43d 78f6 95bd
00000130: cd11 643d c5f3 503d 5b04 c7bd 9ea5 9a3d
00000140: 2dc2 2bbd 1e03 e03d 3965 9ebc 4f3b 8bbd
00000150: 8122 c03d 68ab d039 596b ef3d 52ea e5bc
00000160: c890 d03d 0ef7 bb3d 599c 18bd 052d 1e3c
00000170: a7d5 e13c b1c5 9cbd feba dabc 9de1 533d
00000180: b9ef 403d 4e78 d9bd 19a0 dbbd fe95 363d
00000190: 33e0 d3bd de46 fdbc 9ee7 c73c 0a15 debd
000001a0: e42a 83bd ce62 6b3d a7d1 e6bd 8de8 133c
000001b0: 922d 163d 83c9 e23c 677d da3d 6f12 473d
000001c0: 52c5 bdbd 211f 3ebd d509 bdbd 8671 293d
000001d0: 9739 0d3c 7bba e83d 3361 d83c acfd a4bd
000001e0: 09e2 cfbd 1418 c5ba 92c2 723c c978 c73d
000001f0: 11f8 b6bc 982f edbd 3c65 6bbd ee9a bb3c
00000200: 2d70 90bd 465f 953b 3ac5 16bd 6b8a 36bd
00000210: dc05 10bd 87b4 83bd dd0a dabd 9dbb 0f3c
00000220: e447 4f3d cb14 eabd 0e0d 81bd 5bee de3d
00000230: b17f 893d 30a8 da3c 2757 2b3d 72af 3f3c
00000240: fcba d43d cc41 f83b 53fa abbd 89d0 a43d
00000250: 47ed debd 7e01 3dbd 6743 12bd 28d7 7b3c
00000260: 915d d83c 8e67 7ebd 9030 573d 7b27 7c3c
00000270: e523 89bd e8d0 fb3c c584 abba 2be5 0dbd
00000280: b1a5 d03c 349d 9f3d df1a 463b 51fc 4f3b
00000290: 79ce 0b3c 4b68 32bd a7ff 503c 7099 a43d
000002a0: afab 0d3b 8b20 583d f1da f13d 17ce 9cbd
000002b0: 4372 c13d bc46 923d 6062 f7bd a1b6 e4bc
000002c0: 89b5 edbc be29 d73d 365b 7fbd 8d0a bd3d
000002d0: 28f0 513d 452b c6bd 1a08 3abd 1491 54bc
000002e0: 0223 0cbb 3311 343e 2f93 19be cdd8 35be
000002f0: 70f3 1dbd e779 a03d 7806 c2bd 3cd1 7fbb
00000300: 919f 933d c833 ebbd 7243 32bd 8b7d ab3d
00000310: 3e5f ccbd bd45 b2bb 82de 11bd 4166 863d
00000320: 7bf2 8ebd 209d 2f3d 0df3 df3d 0165 fabd
00000330: 9c41 24bd f18b 3939 6236 f53c 3f89 88bd
00000340: 0c1a 913d c96f 8ebc 8e39 00bd 09b5 a53d
00000350: 908d c8bb 0c73 be3c d9ab b03d 51b2 9cbd
00000360: e109 45bc 4bfa c1bd 188d 533d 7c99 a5bd
00000370: 3da2 a3bc 7097 90bb a455 9d3d 0c2f 96bc
00000380: ccf8 b13c 6dff 383d 864c 53bd bbaf d13d
00000390: 43d7 9fbd 2c94 2bbc 37f3 c1bd ce14 383d
000003a0: d1a0 acbc 3f94 ce3d 8829 4b3c 3135 5cbd
000003b0: 8657 e1bd 3122 7ebd b08f 733c a0cf a1bb
000003c0: 0b04 963d 3fbf b8bd b811 f63a eec3 b0bd
000003d0: 9948 a63d 1e57 bebd 3407 38bd 5671 69bc
000003e0: 4db5 86bc 2013 e8bb 8cc6 063e 7c78 423c
000003f0: 3714 d13d 0c56 6c3e e27a a4bd 228b a43d
0.10188353 -0.037248876 -0.10855395 0.099254794 0.055163953 0.038551606 -0.12766749 0.089018725
0.1087098 -0.04970239 0.07029019 -0.0714963 0.18880287 -0.16182616 0.042194817 -0.10180874
-0.07989923 0.0050126985 0.0985952 0.04864881 -0.030826917 -0.04435961 0.035978258 0.09434519
0.056132123 -0.010403364 -0.124976255 -0.0061461474 0.09717873 0.036109347 0.016258962 -0.07509415
0.053736527 0.028522471 -0.017403472 -0.045260545 0.01924771 0.033990007 0.06107286 -0.034683596
-0.055922464 -0.054852262 -0.026506187 -0.07769799 -0.07111439 -0.07965492 0.11492353 0.038658436
0.013787094 -0.09722665 -0.10688344 0.010639214 -0.04992569 -0.0063882456 0.096480474 -0.014845331
0.03627898 0.09077852 0.056149352 0.009264118 0.031135382 0.06687762 -0.10530768 0.070982784
0.021296266 0.026323047 -0.08938713 -0.043101955 -0.019144762 -0.017073568 0.0075905514 0.052274648
0.033300642 0.043748125 0.08032206 -0.07322401 0.05568104 0.051013727 -0.097176276 0.0755112
-0.041933227 0.109380946 -0.019335376 -0.067984216 0.09381581 0.0003980056 0.11690397 -0.028065834
0.10183865 0.09177981 -0.03725848 0.009654288 0.027567698 -0.07654894 -0.026700493 0.051728833
0.047103617 -0.106186494 -0.107238956 0.044576637 -0.10345497 -0.030917581 0.024402436 -0.10843857
-0.06404665 0.057467274 -0.11270457 0.009027612 0.036664553 0.027683979 0.1066845 0.048601564
-0.092661515 -0.046416406 -0.09230391 0.04136803 0.0086196875 0.11363693 0.026413536 -0.080561966
-0.10150535 -0.0015037083 0.014816897 0.09739835 -0.022335084 -0.115813434 -0.05746959 0.022901025
-0.07052646 0.0045584766 -0.036809184 -0.0445656 -0.035161838 -0.06430917 -0.10646603 0.008772758
0.05060567 -0.11429747 -0.06301318 0.108853064 0.06713808 0.026691526 0.04183116 0.011699544
0.10387227 0.007576203 -0.08397355 0.080475874 -0.10885101 -0.046144 -0.03570881 0.0153711215
0.026411803 -0.062110476 0.052536547 0.015390272 -0.066962995 0.030739263 -0.0013085833 -0.03464238
0.025469633 0.07793656 0.0030228419 0.0031736086 0.008533114 -0.043556493 0.012756265 0.080370784
0.0021617224 0.05276541 0.11809338 -0.07656496 0.09445622 0.07142398 -0.120793104 -0.027919115
-0.029017227 0.105060086 -0.062342845 0.09230528 0.05125442 -0.09676222 -0.045417883 -0.012974042
-0.002138317 0.17584686 -0.14997552 -0.17758484 -0.03856224 0.07835751 -0.0947389 -0.0039034626
0.07208169 -0.11484486 -0.043521352 0.08373555 -0.099791035 -0.0054404424 -0.03561259 0.06562472
-0.06979843 0.042874455 0.1093503 -0.12226296 -0.040101632 0.00017695107 0.029933158 -0.066668026
0.07085046 -0.017387288 -0.03130489 0.0809117 -0.006120391 0.023248218 0.08626527 -0.07651199
-0.012026281 -0.09471568 0.05164823 -0.080859154 -0.019974822 -0.004412584 0.0768235 -0.01833298
0.02172508 0.045165468 -0.05158665 0.10238596 -0.0780473 -0.010472339 -0.09470218 0.044941716
-0.021072777 0.100868694 0.012400039 -0.053761665 -0.11003022 -0.062044326 0.014865801 -0.004938081
0.0732499 -0.09020852 0.0018773591 -0.086311206 0.08119316 -0.0929396 -0.044928744 -0.014248213
-0.016443873 -0.007082358 0.13161677 0.011869546 0.10208934 0.230797 -0.080312505 0.0803435

bias f4 [64]
00000000: cb1a a6bd f024 0abd 2403 59bd 228e 22bd
00000010: 9b95 89bd 45f8 d1bd e928 e7bd e67f 823b
00000020: e8bc 5a3c 66d3 20bd dc3b b03d 5f42 cf3d
00000030: 7ac2 febc 01ae 7f3d 643b 8b3d 6f61 5bbd
00000040: 6022 cdbd 56cf 8a3d 44ab 96bd fbc0 ab3d
00000050: 1e8a 0fbd b5c1 d3bd ec31 cf3d 0c10 1a3d
00000060: e5fb 9fbd 80ce b63d 5332 ab3d 3ed1 3abd
00000070: d993 e93d 85c5 163d 17a0 a6bc 13d0 223b
00000080: f9b0 343c 3c6d 2b3d efdc a2bd 5194 42ba
00000090: 0f35 8dbc 3d63 123c 87cc 533d 594c f4bd
000000a0: 27e5 b63d 2272 f1bd 09b6 613d d022 f33c
000000b0: 9965 893c 7c3e 2abd ef93 563d 15ad 89bd
000000c0: a19c fb3c a97f d9bd c75d bd3d 9f7c df3d
000000d0: 54c1 33bd 9d0a d33d a8e2 a5bc 7f6c 7e3d
000000e0: 4c50 26bd 2550 89bd 8c77 a33d c79a 5f3c
000000f0: ad2e 493d 6007 adbd f7ee 77bc b8a1 68bd
-0.08110579 -0.033726633 -0.05298151 -0.03968633 -0.06717988 -0.10252432 -0.112871 0.003982532
0.013350703 -0.039264105 0.08605167 0.10120081 -0.031098593 0.062421802 0.06798437 -0.053559717
-0.10016322 0.067778274 -0.07356885 0.083864175 -0.03504383 -0.10339681 0.10116944 0.03761296
-0.07811717 0.089261055 0.08359208 -0.045609705 0.11405153 0.036809463 -0.020340009 0.002484326
0.011028522 0.04185222 -0.07952296 -0.00074226136 -0.017237214 0.008934793 0.051708724 -0.11928625
0.08930426 -0.11789347 0.055105243 0.029679686 0.016772078 -0.041563496 0.052387174 -0.06722466
0.030714335 -0.10620052 0.09246402 0.109124415 -0.043885544 0.10304759 -0.02024968 0.06211519
-0.04060392 -0.067047395 0.07981786 0.013647742 0.04911678 -0.08448672 -0.015132657 -0.056794852

weight f4 [128, 64, 3]
00000000: 6a9e 9bbc addf 81bd fcfa 853d 7ba7 ce3a
00000010: c73c 623d ca50 293d c3c3 51bd de7c 32bd
00000020: a678 d43c fa26 85bd 3ac5 3ebd 5974 3abd
00000030: 474a 0ebd 1e01 73bd 298e 89bd d1f0 003c
00000040: 6240 a73c 451b 243c d31b 053d 14d9 b0ba
00000050: 6327 54bc a5cc 2c3d 4772 9f3c 3380 6b3d
00000060: ece8 af3c 85ce 9c3b f2dd 66bd b17a 41bd
00000070: 991e 6a3d 65b6 21bd d22b 823c c947 d0bc
00000080: a005 89bd 3549 93bc 6a4a 6a3d 4914 5ebd
00000090: 076f d7bc c7e5 b03b aa40 49bd 149c c6bc
000000a0: 9f81 e7ba 7af2 403d 794f b63c b788 4abd
000000b0: 18e0 683d 9104 1ebd e19e 0cbc 8b67 133c
000000c0: 48a9 50bc b1b8 1fbd c61a 803d 9206 cbbc
000000d0: 688a 0bbd c9d0 363d 8279 7cbd f5b8 f13c
000000e0: 329d 8bbd 0fa4 6abd 9018 6dbd 0635 38bc
000000f0: aaf0 1c3d 500d 21bd dfc4 90bd fdc7 16bd
00000100: 0d08 3bbc 2d6e 0cbd 1bc2 89bc abd7 94bb
00000110: 8c0a f0bc ba74 683d 54a5 5f3d 27c0 79bd
00000120: 4e69 92bd e81b 013d 8ce4 123c 0415 8e3c
00000130: 3099 0dbd 6db1 663d 2666 33bd bf22 59bd
00000140: 8b77 08bb ef79 073c 709a 3dbd a7c8 043d
00000150: b833 8b3c 9f6a 01bc 67d9 54bd d2ed 4f3c
00000160: b27b f7bc abf9 edbc fc7d f03c 7ea4 97bd
00000170: 3930 1bbb 079d 003d c997 a2bc 0256 28bd
00000180: 702f a1bb 43d7 a0bd 7e7d 343d cd5c d1ba
00000190: 8d82 7cbd a315 bebc 0b7c 513c 0735 1ebd
000001a0: 7161 303d 6320 56bd a511 bbbc ddb4 7b3d
000001b0: 2058 14bd 0527 173d ddf2 8c3c 5e82 44bd
000001c0: b803 303d c644 8ebd dc46 a4bc 0900 7639
000001d0: 490b 573d af96 8dbd 858f 3a3d 895d 82bc
000001e0: e661 753a de26 bb3c e804 99bd a2b5 6fbd
000001f0: 24ac 8dbd 76f4 3dbc b3e6 753d 8175 3abd
00000200: 1f0d 603d c9a7 513c 6bdb f7bc 5ba8 8cbd
00000210: 36d2 2b3d 8e23 eebb c6d7 8c3d c8c4 793d
00000220: aed1 b43a aa02 2ebd aebb 4a3d b2c9 7abd
00000230: 3a3f 4cbd 2a1f 77bd 497d 4d3c 39fc 083d
00000240: e7a9 a83c 2be5 273d 1066 84bc 3db2 393d
00000250: fb49 16bd efd3 863c 3ace 0c3d 54f5 3ebd
00000260: a346 4dbd 07ab 92bc 11d6 78bc 81e4 59bd
00000270: 2e1f 84bd e8dd ddbc 03ff 3a3c 22a3 473d
00000280: a650 033c 6692 303b f7b4 89bd e8ff 653d
00000290: 89a4 43bd b150 b0bc 3800 5bbd 5da9 d23c
000002a0: 5526 163d 71fe 8a3d 482e 143d 5bc6 88bd
000002b0: b96d 823b fb10 463d d283 72bd ed3d c43c
000002c0: 9e95 4fbc 15f9 45bc bc3c 2ebd a272 fe3b
000002d0: 5d39 fb3c badd 3dbd 94fb 0b3d 0170 10bd
000002e0: 6335 b6bc 51df 8e3d 6d52 763d feee 04bb
000002f0: 3b3c 643d 2e57 8b3d 465f 313c bf26 8bbd
00000300: 016a 993d 7355 51bd afc5 383d 6dba 9fbd
00000310: eba4 17bd a980 863d 8ea9 c83c b380 aebd
00000320: e3b7 c5bc 0e03 3ebd 9825 8e3d 26ca 2e3d
00000330: 0542 0fbd ffd2 1b3a ecb0 72bd 1965 b23d
00000340: f8dd aebc 3ccc 82bc e66e d2bc bea5 b4bd
00000350: 6835 b7bd 3e82 e73c c896 243d 94c4 613d
00000360: cf54 8239 5872 20bd 9058 553d 5cd1 21bc
00000370: 34dd c8bc f8dd b83b 3805 7e3a e42d 77bc
00000380: c6b5 8ebc 5a40 53bd c192 c83c d5aa 233d
00000390: 3751 803d 9caa 63bc 1c64 893d 2e85 3b3c
000003a0: 1036 aabd a6bc 33bc cbec 6fbd d982 193c
000003b0: 8532 f53c 7c26 6cbd d115 c13d 6c3f 31bd
000003c0: 9aec 39bb deaa f43b 0338 98bd 31c5 b23c
000003d0: 52e5 863b 9215 debc 8812 22bc 8dac 083d
000003e0: ede7 2ebd cd45 a8bb 4ca3 2ebd 0324 2a3d
000003f0: e949 753c e167 413c b147 d43c 3a21 af3c
-0.018996436 -0.06341491 0.06542012 0.0015766466 0.055233743 0.041336812 -0.051212084 -0.043576114
0.025936436 -0.06501575 -0.04657481 -0.045521114 -0.034738805 -0.059327237 -0.06716568 0.007869915
0.020416442 0.010016267 0.03249724 -0.0013492429 -0.012948844 0.04218735 0.019463671 0.057495307
0.02147337 0.0047853612 -0.056364007 -0.04723615 0.057158086 -0.039480586 0.015890036 -0.025424855
-0.06690526 -0.017979244 0.057199873 -0.054218564 -0.02629806 0.0053984853 -0.049133934 -0.024244346
-0.0017662531 0.047106244 0.022254692 -0.049446788 0.056854337 -0.038578574 -0.008582802 0.008996855
-0.012735672 -0.038994495 0.06255107 -0.024783406 -0.03406754 0.044632707 -0.061639316 0.02950714
-0.06817092 -0.057285365 -0.057884753 -0.0112431105 0.038315453 -0.039319336 -0.070688 -0.036811817
-0.011415494 -0.03428476 -0.01681619 -0.004542311 -0.029301904 0.056751944 0.05460103 -0.060974266
-0.071489915 0.031520754 0.008965623 0.017344005 -0.03456992 0.05632155 -0.04379859 -0.053011652
-0.0020823206 0.008268817 -0.04628986 0.03241792 0.016992435 -0.007898956 -0.051965144 0.012690978
-0.03021035 -0.029049715 0.029356949 -0.07404421 -0.0023679866 0.031399753 -0.019847767 -0.04109765
-0.004918985 -0.07853558 0.04406499 -0.0015973091 -0.06164794 -0.023203677 0.012785922 -0.03862479
0.043061677 -0.05227698 -0.022835562 0.06145178 -0.036216855 0.036902446 0.01720565 -0.04797589
0.042972296 -0.06946711 -0.02005332 0.00023460401 0.052500997 -0.06913506 0.045547027 -0.015913742
0.00093605963 0.022845682 -0.07471639 -0.058522828 -0.06917599 -0.011593929 0.060034465 -0.045522217
0.054700013 0.012796351 -0.030255994 -0.06868049 0.04194852 -0.007267422 0.06877093 0.06097868
0.00137954 -0.04248301 0.04949539 -0.061227508 -0.049864985 -0.060332455 0.012542077 0.033443663
0.020588828 0.040990036 -0.016161948 0.045335997 -0.036691647 0.01645848 0.03437636 -0.046620682
-0.050116193 -0.017903818 -0.015187756 -0.053196434 -0.064512596 -0.027083352 0.011413339 0.04873956
0.008014834 0.002694273 -0.067239694 0.056152254 -0.047764335 -0.021522852 -0.053467005 0.025715524
0.03665765 0.06786812 0.03617695 -0.06678458 0.003980365 0.048356038 -0.059207745 0.02395531
-0.012669949 -0.012083312 -0.04253839 0.00776513 0.030667001 -0.046354033 0.03417547 -0.035263065
-0.022242254 0.06976188 0.0601372 -0.0020284052 0.055721503 0.068037376 0.010825938 -0.067944996
0.07490922 -0.05110688 0.0451104 -0.0779923 -0.037022512 0.06567509 0.024494912 -0.08520641
-0.024135536 -0.046389632 0.06940764 0.042673253 -0.03497507 0.00059442216 -0.059250757 0.08710689
-0.021346077 -0.015966527 -0.025687646 -0.08820675 -0.08945733 0.028260347 0.04018286 0.055119112
0.0002485872 -0.039171547 0.052086413 -0.009876575 -0.02451954 0.005641695 0.0009690109 -0.015086625
-0.01742066 -0.051575042 0.02448404 0.03995784 0.062654905 -0.013895657 0.067085475 0.011445327
-0.08311093 -0.01097027 -0.058575433 0.009369575 0.029931316 -0.05765389 0.09427989 -0.043273374
-0.0028369785 0.007466658 -0.074325584 0.021822544 0.0041166926 -0.027109895 -0.0098921135 0.033367682
-0.04270165 -0.005135274 -0.0426362 0.04153825 0.014971235 0.011804552 0.025913091 0.021378148

bias f4 [128]
00000000: 6d64 fd3c ccc1 293c 3913 9f3c c024 ecbc
00000010: dedc 9d3b e680 653d 289e b93c be0b fcbc
00000020: 41fc 5fbd 05e5 a5bd 224a 76bd 0769 c3bc
00000030: fbf2 803d 1baa 50bb 0683 003d c8dd 23bd
00000040: 53f5 3e3b 8ed3 15bd 0192 c3bc c055 913d
00000050: d828 553c 8258 65bd b23e afba d33c d5bc
00000060: 7666 79bc 534b ccbc ffb2 e6bc 311d ee3c
00000070: 5edb 563d 5d6d a03b 947d 91bb 02c0 433d
00000080: d980 8dbd a16b 2e3d 6648 94bd b458 903d
00000090: 3e6a 5f3d a4e7 84bd d011 45bc 8a62 cabc
000000a0: b9de 5cbc 3927 92bd b8c8 513d 514a f23a
000000b0: 58d2 fcbb 3f76 8ebd 476d b2bc 3895 dcbc
000000c0: 1754 3cbd 96a8 033d 3bb7 313c ed24 353d
000000d0: a437 93bd b315 58bd 550a 9bbc f223 8f3c
000000e0: eb23 bf3b a676 3cbd c0e2 633b 4a1c 953d
000000f0: 57ee 843c 505b 81bd 5fc1 99bd 2d14 423c
00000100: 0ae1 fd3c 075c f3bc 782e 113d 1e04 0dbc
00000110: f346 763c 13a6 553d 0fe3 b63c c5f9 b8bd
00000120: 2527 7cbd 9548 88bd f647 16bd 20ba 6cbb
00000130: 3131 fe3c a4fa 85bd 0431 b43c e233 4bbd
00000140: d761 043d c9d4 f5bc dd89 1a3d d1f9 09bd
00000150: f09f 68bd b61e 58bd 9aa1 84bb a207 2f3d
00000160: 1632 0e3d a7f9 813d 2392 4b3c b384 44bd
00000170: e702 a7bd fcf8 f5bc 4a10 5bbd bcec 9bbd
00000180: 16c6 8ebc 540e 243d 4024 2c3c 17fe aabc
00000190: 33c0 19bd b14d 05bd 4024 8abc e902 e6bc
000001a0: 4a2f 8abd be99 8fbd b3a2 a93c dd1c 893d
000001b0: 4cf7 99bc 16bb b4bc f5ee d43b 38c1 1e3d
000001c0: 8d7d 32bd 441f 9ebd 7c2e 993c 646b bf3c
000001d0: ddb4 823d c1ce 5a3d d560 98bc 792a 6a3d
000001e0: df15 233c ea3e cf3c a14c 8f3d 81b3 99bc
000001f0: 417c 10bd 4fe5 883d e2ef 2dbd 6f9e 8a3d
0.030931676 0.010361146 0.019418346 -0.028826118 0.004817589 0.05603113 0.022658423 -0.030767318
-0.054683927 -0.08100323 -0.060129292 -0.023853792 0.06296345 -0.0031839672 0.031374954 -0.04000643
0.0029137924 -0.036578707 -0.023873331 0.07096434 0.013010226 -0.05599261 -0.0013370125 -0.02602998
-0.0152221825 -0.024938261 -0.028161524 0.029066654 0.0524553 0.0048958496 -0.004440019 0.047790535
-0.06909341 0.04258311 -0.072403714 0.07048169 0.05454468 -0.064894944 -0.012028173 -0.02470519
-0.013480836 -0.071363874 0.05121681 0.0018485283 -0.0077155046 -0.069561474 -0.021780623 -0.026926622
-0.04597863 0.032143198 0.010846908 0.04422467 -0.07188347 -0.05275507 -0.018925825 0.017473195
0.005833139 -0.04601159 0.0034772605 0.07280786 0.01622693 -0.063162446 -0.07507586 0.011845631
0.030991096 -0.029706968 0.035444707 -0.008606939 0.015031564 0.052160334 0.022325067 -0.09032015
-0.06156077 -0.06654469 -0.03668972 -0.0036121681 0.031029316 -0.065419465 0.021996029 -0.049610026
0.03231987 -0.03000869 0.037729133 -0.03368551 -0.056793153 -0.052763663 -0.0040475847 0.04273189
0.034715734 0.063464455 0.012424978 -0.047978114 -0.081548505 -0.030025952 -0.05348233 -0.07613513
-0.01742844 0.040052727 0.01050669 -0.020873113 -0.03753681 -0.032544795 -0.016862988 -0.02807756
-0.06747301 -0.07011746 0.020707464 0.06694958 -0.018794678 -0.022061866 0.0064982125 0.038758487
-0.043576766 -0.07720807 0.018698923 0.023366638 0.06382153 0.053419832 -0.01860086 0.05716941
0.009953945 0.025298554 0.06997038 -0.018762352 -0.035274748 0.06684362 -0.0424651 0.067685

weight f4 [16, 128, 3]
00000000: 1206 bfbc 9a26 04bd 335d 793c 0ca0 7abd
00000010: 7701 ac3d 8a93 803d c420 d9bc 8a24 11bd
00000020: 1e73 463c 9958 1dbd 9a65 063d 399d e33c
00000030: d3b1 203b 3d43 b1bc 8f7e 553b 28a3 8e3c
00000040: 198e adbb 2fc9 823d 1f97 21bd 4bbd 503c
00000050: 4d8d 8d3a 480a 87bc aecc a63c 97e3 433d
00000060: 9f68 04bc 6676 75bc ad1e 063d fc15 0fbd
00000070: cd7f 913d a33a b23d 379d 903c cd24 d7bd
00000080: abbb 8b3a 2bcc 923c 3a22 f43c 7ea5 b1bd
00000090: 0da6 a7bc 4855 09bd 0b4f 173d b761 72bd
000000a0: 0618 703c c749 6ebd 50c1 573b 38fb 53bd
000000b0: 97ac a03b 2ccf 35bd 5705 09bc f67e 03bc
000000c0: 9537 eeba 7166 b8bc a5dc 7cba b5ca 40bd
000000d0: b602 943d 13f0 893d 025c 623d 1164 86bd
000000e0: b1ec 60bd 1484 d73b 7ff1 103d a400 eebb
000000f0: d04d d03c 3ea8 2fbd 3fed 1bbd 10ee c03b
00000100: 0628 c63c f23d 00bc 5182 32bd 5b4e 2c3d
00000110: 7fbf 123d 3e99 963b 8451 0f3d 02aa 1f3d
00000120: 4722 4a3d b1d4 093b bb23 413d 2986 b7bc
00000130: 991f 63bd 47b2 bebc 0274 d73c 27b8 8bbb
00000140: cc32 07bd e49d ca3c 10d0 923d dd7a 1e3d
00000150: 3f58 a4bc 15d9 71bd 567f 31bd b14c 2cbc
00000160: 93bc 74bd 3324 bbbc a02f 903c cd2c a23d
00000170: 09f5 853d 543f 40bc 0bb1 cfbc cf8c 0cbd
00000180: 290c 7bbc e342 01bd 2130 763d 6edb 6dbc
00000190: 2f15 ff3c 21fe 113d 25bf 503c 18b2 b13c
000001a0: 6421 353d 113a 503b 8635 473c 702b a53b
000001b0: ba12 503d ffc1 7f3d c3bc dcbc b8bd 8e3b
000001c0: fb66 29bd 85d6 a63c 6d0c 0bbd 7b26 b03c
000001d0: 3ce6 923c 74db 143d 189b bdbc 8c10 62bd
000001e0: 9596 fe3c 21dd dbbc 6c6c 7b3d 01ff 423d
000001f0: b2ef a8bb 750f 52bc 8a22 bd3c aa43 883d
00000200: 70aa a93d 7308 5b3b d9e3 403d 6fb6 15bd
00000210: 010d a2bc 107c a73c ccdb bd3c b4c9 8c3d
00000220: 5701 753d a588 a23c f400 45bd 91e2 2d3c
00000230: 085b 783d 50a0 9f3b 6ac4 d53c 46ae 9a3d
00000240: eab9 a6bd 18ab 8fbc 975b 6b3d dce1 9fbc
00000250: 7b56 82bd 0a12 aa3d 0172 643d a275 c9bb
00000260: c0a9 ebbc 507b ccbd 580d 29bc 48b5 5c3d
00000270: 410b 0bbb 5a3b e5bb fcf5 c5bc 53f4 3f3d
00000280: facb f7bb 8233 b6bb 4c1b 68bc 38a8 40bc
00000290: 3306 e8ba 405e 4a3d 9321 983d 78a9 90bc
000002a0: b740 3a3d 0931 2f3c 6b0d c4bd 443b 7c3d
000002b0: 821c d73c 6023 abbd 07ca 883d 327d 38bd
000002c0: 1b8e 153d 2c50 8d3d 11ad 593c 8170 8d3d
000002d0: b5af c93c 2869 8d3c c9b0 203d 0a0c 42bd
000002e0: 563a 883b c90f ed3b 63ee 473d b8ce 0fbd
000002f0: dec1 c5bc b465 e6bc 4454 66bc cfbe 603d
00000300: 94cb 9b3d b65f 9b3d fb4b da3c 176e 953c
00000310: 70d6 41bd 30d1 76bc b887 d0bb 4af9 833d
00000320: 8525 61bb d28f edba c8f6 6bbd f5bf fbbc
00000330: 8cff 8f3d 33f3 b83b bfd1 8abd cc44 593d
00000340: 28a7 82bd 5874 16bd f05d 3dbd 8fb2 733b
00000350: 1b86 03bc 7dcf 53bd 8f96 93bd f404 c73c
00000360: dd0f c1bc 36d8 9abc c80c 1ebd 5085 703d
00000370: 7cde 9dbb 7b61 a53d 6d81 a73c 1a59 e03c
00000380: 5dff f73c f734 adbc 62e2 c0bd 72f5 21bd
00000390: 716e c03c 04a0 033d 8b57 b13d a3e5 953d
000003a0: 3137 6e3d 61e6 903d 8180 ec3c 14ba e0bb
000003b0: fec1 aa3c 8502 d8bb 7b73 733d 7248 7ebd
000003c0: c875 ffbc d0f5 263d 0c8e 29bc d5e3 28bd
000003d0: c8e9 52bd 54d6 42bc 6ab1 aebc cd67 98bd
000003e0: 9f6d 58bc dca6 23bc 1f0e 8bbb 113c 573d
000003f0: 2498 943c 66ab 63bc 85bc 61ba 68d2 9bbd
-0.023318324 -0.032263376 0.015219974 -0.06118779 0.08398717 0.06278141 -0.026504882 -0.035435237
0.012112407 -0.03841457 0.03281174 0.02778493 0.0024520054 -0.021638507 0.0032576656 0.017411783
-0.0052964804 0.06386029 -0.03945076 0.012740443 0.0010799557 -0.016484395 0.02036127 0.04782447
-0.008081584 -0.014981842 0.0327441 -0.034933075 0.07104454 0.0870259 0.01765309 -0.10505066
0.0010660788 0.01791962 0.029801477 -0.08674143 -0.020464921 -0.033528596 0.036940616 -0.05917522
0.014654165 -0.05817583 0.003292162 -0.051753253 0.004903387 -0.044387028 -0.0083630895 -0.008025875
-0.0018174524 -0.022509785 -0.00096459157 -0.047068316 0.072270796 0.06735244 0.055263527 -0.06562055
-0.054913227 0.0065770242 0.03538656 -0.00726326 0.025427729 -0.042885058 -0.038068052 0.0058877543
0.024189007 -0.007827269 -0.04358131 0.042066913 0.035827156 0.0045959046 0.03498985 0.03898049
0.049349096 0.0021031315 0.047153216 -0.02240284 -0.055450056 -0.023278369 0.026300434 -0.004263896
-0.033007428 0.024733491 0.07168591 0.03869139 -0.02006161 -0.059044916 -0.043334328 -0.0105163315
-0.05975015 -0.02284441 0.017600834 0.07918701 0.06540877 -0.011733849 -0.025352975 -0.034313973
-0.015322723 -0.03155793 0.060104493 -0.014517648 0.03113803 0.035642747 0.012740885 0.021691367
0.044221297 0.0031772892 0.012158757 0.0050405785 0.05079911 0.06244087 -0.026945477 0.0043561123
-0.041357975 0.020365963 -0.033947397 0.021502724 0.01793205 0.0363421 -0.023145244 -0.05519156
0.031077662 -0.02683884 0.061382696 0.047606472 -0.005155527 -0.012821068 0.023087759 0.06653531
0.082844615 0.0033421784 0.047092292 -0.036550935 -0.019781591 0.0204449 0.023176096 0.06874409
0.05981573 0.019840548 -0.048096612 0.0106131 0.06063369 0.0048714057 0.026094634 0.07552771
-0.08140929 -0.017537639 0.057460394 -0.019516878 -0.06364151 0.08304222 0.055772785 -0.006148056
-0.028767467 -0.099844575 -0.010318123 0.05388382 -0.0021216425 -0.0069956006 -0.024165146 0.046863865
-0.0075621577 -0.0055603394 -0.014166664 -0.0117588565 -0.0017702043 0.04940629 0.07428279 -0.017658934
0.045471873 0.010692843 -0.09572872 0.061579958 0.02625871 -0.083563566 0.06679159 -0.04504127
0.036512475 0.06900057 0.013285891 0.06906224 0.024619916 0.017262056 0.039231095 -0.047374763
0.004157345 0.0072345478 0.048811328 -0.03510925 -0.024140295 -0.028124668 -0.014058176 0.05486947
0.07607189 0.07586615 0.026647558 0.018240971 -0.047323644 -0.015064523 -0.006363835 0.064440325
-0.0034354639 -0.0018124527 -0.057608396 -0.03073118 0.070311636 0.005644226 -0.06778287 0.053044125
-0.06379539 -0.036732048 -0.046232164 0.0037185287 -0.008027579 -0.051711548 -0.07206451 0.024294354
-0.023567135 -0.018901926 -0.038586408 0.058720887 -0.004817782 0.080752335 0.020447457 0.027386237
0.030273134 -0.02114342 -0.09418179 -0.039540716 0.023490163 0.032135025 0.086592756 0.0731919
0.058158103 0.07075191 0.02886987 -0.0068581197 0.020844456 -0.006592097 0.059436303 -0.062080808
-0.031184092 0.04076177 -0.010348808 -0.041232903 -0.051492482 -0.01189192 -0.021324832 -0.074416734
-0.013209729 -0.009988513 -0.0042436267 0.05254752 0.018138953 -0.013895845 -0.00086111604 -0.07608491

bias f4 [16]
00000000: 0d72 473d 4211 dabc 63af 3cbd 0d77 1f3c
00000010: c436 3abd bcf7 28bb bc15 f5ba aae5 093d
00000020: 5ab0 3b3d fd05 363c 095a 13bd 530f a6bc
00000030: 7cb2 043d b44e 2a3d f72f 30bd 76d0 1fbd
0.04869275 -0.026619557 -0.0460657 0.009732974 -0.045462385 -0.0025782427 -0.0018698494 0.03366629
0.04582248 0.011109826 -0.035974536 -0.020270979 0.03239678 0.041578963 -0.043014493 -0.039017163

weight f4 [16]
00000000: 73ca 7d3f a681 7b3f 86b0 833f 0efe 7f3f
00000010: 0000 803f ea0d 863f dfd2 7e3f ebe1 743f
00000020: cf50 803f 9008 7f3f ea84 7c3f e5c5 813f
00000030: 6cfa 7c3f 0000 803f 1add 813f 0000 803f
0.9913704 0.982447 1.0288246 0.9999703 1.0 1.0472996 0.99540514 0.95657223
1.0024661 0.9962244 0.9864031 1.0138518 0.98819613 1.0 1.01456 1.0

bias f4 [16]
00000000: 78f0 88bb 228d f7ba df50 2fbd c916 12bd
00000010: 24bf 6c3c 9cf9 823c e772 d7bc 5b98 2c3c
00000020: 2f45 c33b b7ae 3e3c 3cf3 94bc b783 1ebc
00000030: 099e 76bc 56d3 03bd 9899 9fbb e86d a3bc
-0.0041790567 -0.0018886665 -0.042801734 -0.03566626 0.014449868 0.015988164 -0.026299907 0.010534371
0.005959175 0.011638335 -0.01818239 -0.009674958 -0.015052327 -0.032183968 -0.0048706047 -0.019949868

running_mean f4 [16]
00000000: 8178 ef3e 4070 393e 2f44 f53e 0400 0000
00000010: 0000 0000 91d3 853e 6f55 743a 6a2f 3c3e
00000020: c5e2 093f 5a01 4a3e f31e 143e fff1 e13a
00000030: 9a48 623b 0000 0000 1c3c 623d 0000 0000
0.46771625 0.18109226 0.47903582 6e-45 0.0 0.26137975 0.0009320592 0.18377462
0.5386165 0.19727078 0.14464931 0.0017238258 0.0034528137 0.0 0.055233106 0.0

running_var f4 [16]
00000000: 3cef e53d f859 8f3c 5365 f039 0400 0000
00000010: 0400 0000 62e4 fa38 b7bd 643c be25 803d
00000020: a923 0a3c e3d6 2f3e b01d 3a3e 33f7 ef3c
00000030: 4f77 6b3d 0400 0000 7b22 9f3d 0400 0000
0.11227271 0.017498955 0.0004585186 6e-45 6e-45 0.000119634686 0.013961247 0.06257199
0.008431354 0.17171817 0.18175387 0.029292678 0.05748683 6e-45 0.077702485 6e-45

weight f4 [64]
00000000: 67ed 7f3f 0f59 7d3f 3cf7 823f 8137 853f
00000010: 7f68 853f 3db8 7e3f e44e 833f 1344 783f
00000020: 511b 7f3f 4816 7a3f 5eee 833f 88dd 7e3f
00000030: 33ad 7f3f df8b 7c3f f31b 7e3f 617f 813f
00000040: 219a 773f ae23 7e3f e70d 7a3f de85 7c3f
00000050: 3978 803f 165b 833f 43be 823f c665 7f3f
00000060: daea 813f 0856 7f3f 46fa 7c3f fbd0 7d3f
00000070: 4b74 7d3f 2f3e 7c3f 834b 7e3f f72e 7d3f
00000080: 37e2 773f c95c 7e3f 90ca 7f3f b032 7e3f
00000090: 9e23 7e3f e258 813f 3649 833f 8e95 813f
000000a0: ecab 803f 793c 7e3f 1cc9 833f 4929 803f
000000b0: 875c 823f 774f 7d3f 0bbd 803f d37a 7c3f
000000c0: 9013 823f f37d 7a3f df4d 7a3f d88e 7f3f
000000d0: 5f1b 813f 01f5 813f 076c 803f 86dd 7e3f
000000e0: 2107 7d3f 28d8 833f ba83 833f 2efa 7d3f
000000f0: 1126 803f e1d0 793f aeba 7c3f 78ae 763f
0.9997162 0.9896402 1.02317 1.0407563 1.0422515 0.99499875 1.025845 0.96978873
0.99651057 0.9769025 1.0307119 0.9955678 0.99873656 0.98650926 0.992614 1.0116998
0.9671956 0.9927319 0.97677463 0.98641765 1.0036689 1.0262172 1.0214313 0.9976467
1.0149796 0.9974065 0.98819387 0.99147004 0.99005574 0.98532385 0.9933397 0.9889979
0.9682955 0.9936033 0.9991846 0.99296093 0.992731 1.010525 1.0256717 1.0123765
1.0052466 0.99311024 1.0295749 1.0012599 1.0184487 0.9894938 1.0057691 0.98624915
1.016222 0.97848433 0.9777507 0.9982734 1.0086478 1.0152894 1.0032967 0.9955677
0.98839 1.0300341 1.0274575 0.9920987 1.0011617 0.9758435 0.9872235 0.9635997

bias f4 [64]
00000000: b7bb 15bc debb 913b 805e 32bb 98e8 433c
00000010: 3d8f 95bb c78f 0e3d be19 af3c 1c7f 963c
00000020: dab6 923b 2bda 303c 76e8 243c 93b5 7dbc
00000030: a668 633a ade3 553c 3462 913c 14cd 2f3c
00000040: 208e 443c dcd5 653c 4d9d 003b d275 973b
00000050: aba1 963b 98d9 3a3b 538e c33c 0bf8 2c3b
00000060: 9eb7 afba a8f7 27bc 435f e03b f3f2 003c
00000070: 3de9 773c 87cc 45bb f7ae 87bb 6f5a 063d
00000080: 858b 923c b388 033b 50c7 743c 70d2 e2bb
00000090: 9a3d 90b7 07d2 533c 3910 cbbb e3f4 3a3c
000000a0: 63dd 79ba 342d 1f3c af2c 633c baaa be3c
000000b0: ce10 bd39 baf8 bebc 8849 e6ba 342e 083c
000000c0: c753 de38 3bf6 7cbb e4f4 1ebc 6592 88ba
000000d0: d81b 153c a638 9c3b 41db ae3c 3a0c 313c
000000e0: 8880 ad3c 2f05 933c 5510 3e3c c606 b63c
000000f0: defe 9f3c b42e b93c d86c 1a3c 62d7 b5ba
-0.009138993 0.0044474443 -0.002721697 0.01195731 -0.0045641945 0.034805086 0.02137458 0.018371157
0.004477364 0.010794203 0.010065189 -0.015485185 0.00086749566 0.01305477 0.017747022 0.010730047
0.011996776 0.014028039 0.0019625009 0.0046221996 0.004596909 0.0028511044 0.023871576 0.0026392962
-0.0013406163 -0.010251917 0.0068472936 0.007870424 0.015131292 -0.0030181722 -0.0041407305 0.032801088
0.017888794 0.0020070493 0.014940098 -0.0069220588 -1.7194823e-05 0.012928492 -0.0061970023 0.011410925
-0.00095315854 0.009715367 0.013865634 0.023274768 0.0003606141 -0.023311961 -0.0017569521 0.008311797
0.0001060139 -0.0038598913 -0.009701941 -0.0010419606 0.009100877 0.004767495 0.021344783 0.010806138
0.021179453 0.017946808 0.011600574 0.022220027 0.01953071 0.022605278 0.009425364 -0.0013873393

running_mean f4 [64]
00000000: 983e 653b ecd0 fb3b 3a63 f63b 2ca0 d13a
00000010: 6808 323b b051 923b 8a67 473b 7959 a93c
00000020: 02e3 ab3c c999 4f3c 4004 d33d 47ce 263e
00000030: 6017 1a2f b8a1 893d 7be6 893d a0a8 173c
00000040: 1e6c 733a 5ed3 883d 1fbf 0b3c 70fd b63d
00000050: 962a c23a 8bd9 4a3b 9453 f03d fe26 5f3d
00000060: 2806 283b 6a93 f03d ba59 b73d 40c6 4a3b
00000070: 7c1a e33d 1fff 013d b844 0e3c 98f4 473c
00000080: 493c db3c cc78 0b3d 82cf b83b 4a52 bd3c
00000090: df10 a73c 5102 5f3d cc55 793d 1e30 813b
000000a0: 07b5 c73d a8a2 9d3b 9965 a43d 84dd 063d
000000b0: 879b 793d 0659 d62d a443 8a3d 9f56 e93b
000000c0: 2210 9a3d 34c5 d23a e443 b73d ef1d fd3d
000000d0: 30f7 0c3c 3de5 f13d 2e0e 063c e805 913d
000000e0: f645 6d3c caa2 e03a cfd1 f23d f821 223d
000000f0: 98a9 833d 6062 6b3c e65b 5a3b 76d1 3c3c
0.0034979936 0.0076848175 0.007519153 0.001599317 0.0027165655 0.0044653043 0.0030426704 0.020672547
0.02098227 0.012670943 0.10303545 0.16289626 1.4014523e-10 0.067202985 0.06733414 0.009256512
0.0009285825 0.0668094 0.008529454 0.08935058 0.0014813717 0.003095242 0.11734691 0.054480545
0.0025638435 0.11746867 0.08952661 0.003094092 0.11089036 0.031737443 0.008683376 0.012204312
0.026762145 0.034050748 0.0056399712 0.023110528 0.020393787 0.05444557 0.060872838 0.0039425036
0.09751325 0.00481065 0.08027191 0.032926098 0.060939338 2.4368518e-11 0.06751183 0.0071209217
0.07522608 0.00160805 0.08948496 0.12359225 0.008603856 0.11811302 0.008182092 0.07081205
0.014482012 0.0017138359 0.11856424 0.039583176 0.06428832 0.014366716 0.0033318936 0.011524549

running_var f4 [64]
00000000: 56f3 803b 6d27 c13d e9ab 183c 51b1 413a
00000010: 9bba e13a 7cff 843c 2ab5 053b a589 893c
00000020: e6c9 1c3d f809 a53c 5486 5a3b 21df 763a
00000030: a4e1 842f db9a 0a3d 79f4 373c 5b58 703c
00000040: bd94 ab3b 52dc db3d 0cce 033c 9cb3 913c
00000050: c5c2 023a 436e 013b 5f76 233c a1db 983b
00000060: 638f d73a 5c83 9b39 c1a3 783c ea24 e13c
00000070: 250b 3e3d 4543 213d 8f49 943c a1b5 973b
00000080: d6b8 3c3c db52 003d 6a44 163d 3bcc 283a
00000090: 1c83 3f3e 700b eb3a 4a66 ac3a 0f80 8b3b
000000a0: be1e 513b 13b4 ea3c 9acc f83a b7b3 003d
000000b0: 22e9 a53a 1890 002d a12d 023c ceef 343c
000000c0: 71b9 bf39 19f1 c63c 4a01 5f3d b243 933c
000000d0: 238e 7d3c 8c8c 9c3a 96bd d53d ce78 013c
000000e0: 6a96 723d 9317 403a 269a 9a3b 8f91 8d3b
000000f0: b0ff 063c 8570 da3c 0711 eb3c 9be3 bd3c
0.003935258 0.09431348 0.00931833 0.0007388788 0.001722175 0.016235106 0.0020402172 0.016789267
0.038278483 0.020146355 0.0033344226 0.0009417404 2.4170987e-10 0.033839088 0.01122772 0.014669503
0.005236237 0.10735382 0.008044731 0.01778584 0.00049881294 0.001974956 0.009976952 0.0046648537
0.0016445931 0.00029661774 0.015175761 0.027483422 0.046397347 0.039370794 0.018101482 0.004629806
0.011518678 0.031329017 0.03668634 0.0006439124 0.18702358 0.0017932486 0.0013153043 0.004257209
0.0031909193 0.02865032 0.0018981874 0.03142139 0.001265798 7.307953e-12 0.007945449 0.011043502
0.00036568524 0.024284886 0.05444459 0.017976616 0.015475783 0.0011943742 0.10436551 0.007902337
0.059225477 0.00073277316 0.004718083 0.0043203305 0.008239672 0.026664982 0.028694643 0.02317982

weight f4 [128]
00000000: 5c1b 813f 6f26 843f 723d 823f 2399 7f3f
00000010: 36dd 813f a43d 843f e037 7f3f 3378 843f
00000020: 6d7d 7e3f f923 853f 5479 863f 7ae0 803f
00000030: 9449 813f 9408 883f c6e1 823f 69a6 7e3f
00000040: 8c2d 7f3f e27a 833f 905c 833f ea1c 803f
00000050: 226f 7f3f 0991 813f 13f0 813f 504c 843f
00000060: 3227 803f c9dd 803f e746 843f 7b26 843f
00000070: 9ca3 813f fc79 803f fc4c 813f 89d3 803f
00000080: cd33 833f 10d0 813f 8a66 833f 6e17 833f
00000090: 2968 813f d978 803f 944c 813f 260a 813f
000000a0: 70c1 813f c94f 803f c356 843f 5d74 823f
000000b0: a3be 803f ebf6 833f f4c6 813f 656c 823f
000000c0: c9b3 833f 0645 833f 8590 803f bf5c 803f
000000d0: 5626 7e3f 096a 803f 971e 833f ee22 833f
000000e0: 69e3 803f 75c6 813f 8a90 803f f5fb 813f
000000f0: 7621 813f a329 843f e837 833f 3cb9 823f
00000100: a2a0 843f 8f73 7f3f 9e0a 823f 15d9 853f
00000110: bbd6 833f 03ad 803f 7fdb 823f d169 853f
00000120: c418 823f f61a 823f 650d 823f 3e67 833f
00000130: 802c 813f 0948 833f ab9a 813f b95c 813f
00000140: 4dab 803f 2d24 823f 5de4 813f 0c02 803f
00000150: a803 803f db33 813f 984a 7f3f e0cb 823f
00000160: 2642 803f e4a8 813f bcb5 813f 9aaf 803f
00000170: ef7f 833f 6689 833f b7e4 823f 94dd 823f
00000180: 72ca 813f 14e7 833f 7a48 833f ff3b 843f
00000190: cc37 823f ea3c 823f 2f4c 843f a9ef 823f
000001a0: 09eb 813f 693c 853f 6772 823f 83ef 823f
000001b0: 61d5 7f3f 465e 813f 22ec 7f3f ffaf 833f
000001c0: b8f4 803f c131 853f 6f54 843f 1817 843f
000001d0: 6652 833f 2bd4 803f e503 833f 1697 843f
000001e0: 9d37 843f 8986 843f 792a 813f 3539 853f
000001f0: ed62 833f 7db3 7e3f 22b8 843f bf6d 833f
1.0086474 1.0324229 1.0175002 0.99843043 1.0145633 1.0331311 0.99694633 1.0349182
0.99410135 1.0401603 1.0505776 1.0068505 1.0100579 1.0627618 1.022515 0.9947267
0.99678874 1.0271876 1.0262623 1.0008824 0.9977895 1.0122386 1.015139 1.0335789
1.0011961 1.0067683 1.0334138 1.0324243 1.0128055 1.0037227 1.0101619 1.0064555
1.0250183 1.0141621 1.0265667 1.0241525 1.0109912 1.003688 1.0101495 1.0081222
1.0137157 1.0024348 1.0338978 1.0191761 1.0058178 1.0309728 1.0138841 1.0189329
1.0289241 1.0255439 1.0044104 1.0028304 0.99277246 1.0032359 1.024371 1.0245035
1.00694 1.0138689 1.004411 1.0155016 1.0088336 1.0325207 1.0251436 1.0212779
1.0361521 0.99785703 1.015949 1.0456873 1.0299906 1.0052799 1.0223235 1.0422918
1.0163808 1.0164478 1.0160338 1.0265882 1.0091705 1.0256358 1.0125326 1.0106422
1.0052277 1.016729 1.0147816 1.0000625 1.0001116 1.009395 0.99723196 1.0218468
1.0020187 1.0129666 1.0133586 1.0053589 1.0273417 1.0276306 1.0226048 1.022387
1.0139906 1.0304894 1.0256493 1.0330809 1.0173278 1.017484 1.0335749 1.0229388
1.0149852 1.0409061 1.0191163 1.0229343 0.99934965 1.0106895 0.99969685 1.0288085
1.0074682 1.0405809 1.0338267 1.0319548 1.0259521 1.0064749 1.0235564 1.0358608
1.0329472 1.0353557 1.0091087 1.0408083 1.0264565 0.9949263 1.0368693 1.0267867

bias f4 [128]
00000000: 230c 41b9 52c7 d9ba 8878 ff39 f821 bbba
00000010: b159 e038 6fcf 39ba c066 e7b9 6194 b33a
00000020: c033 93ba fe55 673b 0773 3b3b 6b9c 81b6
00000030: c2fc 8ab9 1f4f ca3a 92ba 7e39 44c7 7338
00000040: 4b36 c0ba 0ea3 cd3a 9206 84ba 6c02 2b39
00000050: 6fd1 a63a 380c 623a b936 8337 2e7d 52ba
00000060: b422 21ba 9db5 37ba 793b 8b3a 162f 0dbb
00000070: 2ad4 773a fe56 4039 7f1e 33ba d024 4d39
00000080: 4430 84ba a8e9 a5ba 9f90 4eba 8977 84ba
00000090: de2b 8d39 79a4 10bb 3908 97ba 684e c937
000000a0: 55ad 8a3a 0cf1 61ba 170e f439 9b13 993a
000000b0: 225f 4238 3128 0cb9 e7fd 80ba 220b 36bb
000000c0: b0e1 14ba c55f 63ba 71ef 82ba 1b47 d0b8
000000d0: 5a52 ee3a 4dbe 8ab8 5d30 dd3a 1285 c93a
000000e0: 7732 7cba da87 b7ba 9485 f53a ae72 e8b9
000000f0: 7751 9eba f29d a03a 01ff 74ba 85fd eeb9
00000100: 6b43 96b9 e834 abba 2956 ab39 6888 2539
00000110: 74db ee3a c20f 733a 6efb e83a 51cd ae3a
00000120: ff56 fbba ebc0 c3ba dd06 853a f792 1738
00000130: bab3 9cb9 bdf1 89ba 94c1 aa3a f0d3 b0ba
00000140: 5f5c de38 10b7 c13a 1152 4f3a e5d3 30b9
00000150: bb73 9239 ed89 123a d09c 9dba 0c7d 1db9
00000160: 8c87 253a d6ca 18ba 0526 56ba 03e2 87b8
00000170: e8b5 a5ba 34d5 1fba e5e3 863a 0bf0 b1ba
00000180: 2990 e83a 42e6 f83a 1944 e43a bf03 1f3a
00000190: f963 273a e803 a3b9 2429 3eb9 ae4c 303a
000001a0: 5197 f9b7 c515 913a cd8e 7039 b9d4 f33a
000001b0: 936d 8d3a 5224 55bb e704 203a cef2 8dba
000001c0: ecef d2ba 8925 ff3a 5570 923b 5808 5e3a
000001d0: 2da1 e83a 9707 21bb e7e3 4c3a 2b07 85ba
000001e0: 9079 6039 e484 123b 1bcd 5d3a 0e96 343b
000001f0: 4303 2c3b 7beb 5a3a 7232 bd3a dbbb 94ba
-0.00018410436 -0.0016615188 0.00048727193 -0.0014277091 0.00010697859 -0.00070881 -0.00044136308 0.0013700837
-0.0011230633 0.0035299058 0.0028602497 -3.862709e-06 -0.0002650973 0.0015434957 0.0002429283 5.8121295e-05
-0.0014664618 0.0015688853 -0.0010072759 0.00016308733 0.0012727211 0.00086230366 1.56419e-05 -0.00080295175
-0.0006146834 -0.00070079585 0.0010622583 -0.0021542958 0.0009453917 0.00018342954 -0.00068328524 0.00019564037
-0.0010085185 -0.0012658136 -0.00078798266 -0.0010106425 0.000269263 -0.002207069 -0.0011522836 2.3997578e-05
0.0010580221 -0.00086189876 0.00046549804 0.0011678817 4.6341804e-05 -0.00013366413 -0.0009841294 -0.0027777632
-0.0005679382 -0.00086736336 -0.0009989572 -9.931457e-05 0.0018182502 -6.615799e-05 0.0016875375 0.0015374741
-0.0009620557 -0.0014002279 0.0018731826 -0.0004433593 -0.0012078722 0.0012254103 -0.000934586 -0.00045583784
-0.0002866046 -0.0013062032 0.00032679856 0.00015786442 0.0018223361 0.00092720625 0.0017775127 0.0013336336
-0.0019175707 -0.0014934813 0.001014914 3.6138077e-05 -0.00029888545 -0.0010524314 0.0013027661 -0.0013490897
0.000106029904 0.0014779288 0.0007908652 -0.00016863605 0.00027933516 0.00055900106 -0.0012024883 -0.0001501927
0.00063144485 -0.0005828565 -0.00081691175 -6.4793996e-05 -0.0012642713 -0.00060971384 0.0010291307 -0.0013575567
0.0017743158 0.0018989521 0.0017415314 0.0006065927 0.00063854415 -0.00031092693 -0.00018135138 0.00067252934
-2.9753575e-05 0.001106911 0.00022941381 0.0018602825 0.0010790102 -0.003252287 0.0006104246 -0.0010829808
-0.0016093231 0.0019466142 0.0044689574 0.0008469871 0.001774823 -0.0024571174 0.00078159425 -0.0010149231
0.0002140759 0.002235704 0.0008461044 0.002755526 0.0026247061 0.00083511294 0.001443459 -0.0011347489

running_mean f4 [128]
00000000: c54f ff3d 6536 5e3d b90f 253d ecef 363d
00000010: b3e2 5b3d 2a18 d93d ffa7 3c3d 3c6d 253c
00000020: 72b0 a93d b546 783b c415 9d3b 7342 ca3c
00000030: be87 c93d dc8a 063d 5cba a33d 2019 283d
00000040: 6bca 403d b5c8 a23c 5a71 2a3d 89dd ac3d
00000050: 0882 413d 9435 ed3c c152 7c3c 6992 b33d
00000060: 7569 ca3c 7da6 453c 52a7 3b3c 610e 9e3d
00000070: 3c6b 863d 49af 613d 029a 813c 0313 a23d
00000080: 4cb3 ae3b dea8 163e 678b 6a3c 177f ea3d
00000090: 2e6a 973d fa61 d73c c9cc 043d 94ea 2e3d
000000a0: 5777 863c a29e c13c 6dcd d53d 4cb0 7c3d
000000b0: c9ae 0b3d 0d61 453a 228b c63c 2f1b 5a3c
000000c0: 9859 943b 0245 a93d e17d ef3c 51ba 6f3d
000000d0: 7a19 333b 9752 143d 64d0 a03c bc26 863d
000000e0: f2d3 403d c5df 373c 513a a73c b1af 9c3d
000000f0: d88f 253d 99f4 b43b 2e38 993b e74f 4a3d
00000100: 0b3e 9c3d 73bb 6d3d 7241 803d 2eb6 e93c
00000110: 64c2 7b3d 2391 933d e22b 683d 7db4 d93a
00000120: 176d 703b 2490 443c e34c 6f3c 553a 623d
00000130: e888 9c3d c1b9 af3b 6538 7b3d 3aee a63c
00000140: ae54 3e3d 3687 4e3c 0f1c 833d e427 b93c
00000150: 4292 093d 3e48 cf3c 2948 513d 24fa 813d
00000160: 59cc fd3d 2118 bf3d 78ff 133d 61df c43c
00000170: b892 533c 550e 093d 35c7 b63b 1d96 a83b
00000180: 02d5 893c 8840 ac3d 59b0 063d db4d 523d
00000190: 6eab f73b 3ccf 933c 953a 083d 01cf 313c
000001a0: a968 653c 31d3 733b 904c 353d 35c2 a63d
000001b0: fea4 873d e393 a13c fe39 703d 9b33 9a3d
000001c0: 16e2 d33c 5b00 be3a e7b0 583d 8283 6e3d
000001d0: 2213 b53d 382b 933d 06e8 433c 5378 bb3d
000001e0: 5720 993d 827c 5d3d 60b3 bd3d 65f7 483b
000001f0: a278 903c 62fe 8a3d f79c a63b d963 b63d
0.12466387 0.054251093 0.040298197 0.0446624 0.053682994 0.10600312 0.04605865 0.010096844
0.082856074 0.0037883942 0.0047938544 0.024689889 0.09840344 0.03284727 0.079945296 0.041039586
0.04706804 0.019871095 0.041612007 0.08440692 0.047243148 0.028956212 0.015400589 0.0876816
0.024708489 0.01206362 0.0114534665 0.07717586 0.06563422 0.055098806 0.015820507 0.079137824
0.0053314324 0.14712855 0.014315463 0.11450022 0.07393299 0.026291836 0.03242186 0.04270418
0.016414328 0.023635212 0.104395725 0.061691567 0.034102235 0.00075294153 0.024236266 0.013312145
0.004527282 0.08265115 0.029234828 0.058527295 0.0027328418 0.036211576 0.019630618 0.06550357
0.047077127 0.011222784 0.02041355 0.07650698 0.040420383 0.0055223224 0.0046758866 0.049392607
0.07629021 0.058040094 0.06262483 0.028529253 0.061464682 0.07205417 0.056682475 0.0016609576
0.0036686116 0.011997256 0.014605734 0.05523141 0.076433 0.0053627198 0.06133308 0.020377267
0.046467476 0.012605479 0.06401836 0.02260203 0.033586748 0.025303002 0.051094208 0.06346539
0.12392492 0.09330774 0.036132306 0.024032297 0.012913398 0.033460934 0.0055779465 0.005144848
0.016825203 0.08410746 0.032883022 0.05134378 0.007558278 0.018043153 0.033258993 0.010852576
0.014002004 0.0037204737 0.04426247 0.08142511 0.06623267 0.019723838 0.058649056 0.07529374
0.025864642 0.0014495956 0.052903082 0.058230884 0.0884154 0.07185978 0.011957174 0.091538094
0.074768715 0.054073818 0.09262729 0.0030665037 0.017635647 0.06786801 0.0050846296 0.08905763

running_var f4 [128]
00000000: dbd4 113a 85b0 833b 78f8 943c fbea 053e
00000010: 05f4 8e3c 0143 da3b 9805 3e3e e933 2c3c
00000020: a08e f33e 936c 043b be7c 9c3b 0777 423d
00000030: 004a 6e3d 3368 b33b 414d d33b 7d44 9f3e
00000040: 8a22 153e b242 853a 38ec 273a 128a 2f3e
00000050: 9003 893e a833 a03d 80eb 993c 02f9 043b
00000060: b8e5 673d 59a6 a33c 4679 f03b 82b6 093c
00000070: ccfd d13c abca 9a3b eff2 e73c 4bce c03c
00000080: 21c2 ce3b 738f 6b3a 997a f73c 81c4 a43c
00000090: fdbb a03c d170 3e3d 1058 753c 5f15 053c
000000a0: 3197 b73b 8ed7 5b3d 1c8f dc3b 739f 963b
000000b0: c3f9 763d a1f3 203a f89d 453d 9020 003d
000000c0: 1420 9d3b 63c1 213b 1e36 c63d bc2a 0e3d
000000d0: 5134 113b 4c5e b23d d36c ae3b 01b2 023c
000000e0: df9f 1a3e c01c af3c 069d 963d bb3d 183d
000000f0: dcb4 eb3c 08f5 7f3b 3046 953b 8a1a ce3b
00000100: 2496 c93b 20b0 ab3e 51a0 573c a548 653a
00000110: 3eaf bb3b 07df 193d 7ad3 bc3c 9501 d73a
00000120: ed78 9b3b bc82 bd3c 8d34 c53c 8769 ea3a
00000130: 8573 9d3d 400d 143c 0a50 bd3b 86dc e73c
00000140: 039a e33c 6754 2d3c 58af 7f3c 1bb1 b63c
00000150: 0341 be3d 773f 6f3d e638 413e 45d6 c43c
00000160: 3ec6 913a 3986 193d 33b0 f53c 4b4d 623d
00000170: a0d8 af3c 7d4f 973b 5544 053c 8562 f93b
00000180: c634 0b3d d7e0 f63b 3352 303c e60c 2f3b
00000190: 20d7 233c 1e71 0c3d 8879 c03b d8e9 4e3c
000001a0: 2588 c73a bbe3 953b 2eb6 413c 98a2 8b3c
000001b0: 91d6 813e eb10 213d 2a7d 3a3e c95d 023c
000001c0: be92 5d3d 82ca 823a ba16 563c a2f8 ff3b
000001d0: 74f9 a63c 0a89 843d 4bde 4c3c 3aa4 8e3b
000001e0: 003a 383b 32fb ed3b 1a8f 243d 6acd 493b
000001f0: b241 023b f054 733e ce24 fa3a 7ce6 683c
0.0005563029 0.0040188455 0.018184885 0.13077919 0.017450342 0.0066608195 0.18556821 0.010510423
0.47569752 0.0020206317 0.0047756126 0.047476795 0.05817604 0.005475068 0.0064484184 0.3110694
0.14563957 0.0010166971 0.0006405744 0.17142513 0.2676053 0.07822353 0.018789053 0.0020290022
0.05661556 0.019976782 0.0073386757 0.00840533 0.025633715 0.004723867 0.028314082 0.023535868
0.006309763 0.0008985914 0.030209826 0.020113232 0.01962089 0.04649431 0.014974609 0.008122771
0.00560274 0.053672366 0.006730927 0.0045966445 0.060296785 0.0006139819 0.048246354 0.031281054
0.004795084 0.0024681918 0.09678291 0.034708723 0.0022156427 0.08709392 0.0053230315 0.00797701
0.15100048 0.021376014 0.073541686 0.037168246 0.028772764 0.0039055962 0.004555486 0.006289785
0.0061519314 0.3353281 0.013160781 0.00087464816 0.0057276776 0.03756621 0.023050059 0.001640367
0.00474464 0.023133628 0.02407291 0.0017884233 0.07688049 0.009036362 0.0057773637 0.028303396
0.0277834 0.010579205 0.01560577 0.022301247 0.09289744 0.058410134 0.18869361 0.024027953
0.0011121703 0.03748152 0.029991245 0.055249494 0.0214656 0.00461763 0.008133967 0.0076106214
0.033985876 0.007534127 0.010761785 0.002671057 0.01000002 0.034287564 0.0058738627 0.012628995
0.0015223069 0.0045742667 0.01182322 0.017045304 0.25359014 0.039322775 0.18211809 0.00795693
0.054095022 0.0009978565 0.013066942 0.0078116218 0.02038262 0.064714506 0.012504171 0.0043530734
0.0028110743 0.007262611 0.040175535 0.0030792602 0.0019875583 0.2376287 0.0019084455 0.014215108
